program(1.0)
[buildInfo = dict<tensor<string, []>, tensor<string, []>>({{"coremlc-component-MIL", "4.28.2"}, {"coremlc-version", "1429.0.0"}})]
{
    func main<ios16>(tensor<fp32, [1, 3, 600, 600]> inputImage, tensor<fp32, [1]> noiseLevel) {
            tensor<int32, [4]> var_8 = const()[name = tensor<string, []>("op_8"), val = tensor<int32, [4]>([1, 1, 1, 1])];
            tensor<string, []> noiseLevel_to_fp16_dtype_0 = const()[name = tensor<string, []>("noiseLevel_to_fp16_dtype_0"), val = tensor<string, []>("fp16")];
            tensor<fp16, [1]> cast_5 = cast(dtype = noiseLevel_to_fp16_dtype_0, x = noiseLevel);
            tensor<fp16, [1, 1, 1, 1]> var_9_cast = reshape(shape = var_8, x = cast_5);
            tensor<int32, [4]> var_20 = const()[name = tensor<string, []>("op_20"), val = tensor<int32, [4]>([1, 1, 600, 600])];
            tensor<fp16, [1, 1, 600, 600]> level_cast = tile(reps = var_20, x = var_9_cast);
            tensor<int32, []> var_23 = const()[name = tensor<string, []>("op_23"), val = tensor<int32, []>(1)];
            tensor<bool, []> input_1_interleave_0 = const()[name = tensor<string, []>("input_1_interleave_0"), val = tensor<bool, []>(false)];
            tensor<string, []> inputImage_to_fp16_dtype_0 = const()[name = tensor<string, []>("inputImage_to_fp16_dtype_0"), val = tensor<string, []>("fp16")];
            tensor<fp16, [1, 3, 600, 600]> cast_4 = cast(dtype = inputImage_to_fp16_dtype_0, x = inputImage);
            tensor<fp16, [1, 4, 600, 600]> input_1_cast = concat(axis = var_23, interleave = input_1_interleave_0, values = (cast_4, level_cast));
            tensor<int32, []> var_27 = const()[name = tensor<string, []>("op_27"), val = tensor<int32, []>(1)];
            tensor<int32, [2]> var_41 = const()[name = tensor<string, []>("op_41"), val = tensor<int32, [2]>([1, 1])];
            tensor<int32, [2]> var_43 = const()[name = tensor<string, []>("op_43"), val = tensor<int32, [2]>([1, 1])];
            tensor<string, []> input_3_pad_type_0 = const()[name = tensor<string, []>("input_3_pad_type_0"), val = tensor<string, []>("custom")];
            tensor<int32, [4]> input_3_pad_0 = const()[name = tensor<string, []>("input_3_pad_0"), val = tensor<int32, [4]>([1, 1, 1, 1])];
            tensor<fp16, [64, 4, 3, 3]> drunet_m_head_weight_to_fp16_affine_quantized_2 = constexpr_affine_dequantize()[axis = tensor<int32, []>(0), name = tensor<string, []>("drunet_m_head_weight_to_fp16_affine_quantized_2"), quantized_data = tensor<uint8, [64, 4, 3, 3]>(BLOBFILE(path = tensor<string, []>("@model_path/weights/weight.bin"), offset = tensor<uint64, []>(64))), scale = tensor<fp16, [64]>(BLOBFILE(path = tensor<string, []>("@model_path/weights/weight.bin"), offset = tensor<uint64, []>(2560))), zero_point = tensor<uint8, [64]>(BLOBFILE(path = tensor<string, []>("@model_path/weights/weight.bin"), offset = tensor<uint64, []>(2432)))];
            tensor<fp16, [1, 64, 600, 600]> input_3_cast = conv(dilations = var_43, groups = var_27, pad = input_3_pad_0, pad_type = input_3_pad_type_0, strides = var_41, weight = drunet_m_head_weight_to_fp16_affine_quantized_2, x = input_1_cast);
            tensor<int32, [2]> var_55 = const()[name = tensor<string, []>("op_55"), val = tensor<int32, [2]>([1, 1])];
            tensor<int32, [2]> var_57 = const()[name = tensor<string, []>("op_57"), val = tensor<int32, [2]>([1, 1])];
            tensor<string, []> input_5_pad_type_0 = const()[name = tensor<string, []>("input_5_pad_type_0"), val = tensor<string, []>("custom")];
            tensor<int32, [4]> input_5_pad_0 = const()[name = tensor<string, []>("input_5_pad_0"), val = tensor<int32, [4]>([1, 1, 1, 1])];
            tensor<fp16, [64, 64, 3, 3]> drunet_m_down1_0_res_0_weight_to_fp16_affine_quantized_2 = constexpr_affine_dequantize()[axis = tensor<int32, []>(0), name = tensor<string, []>("drunet_m_down1_0_res_0_weight_to_fp16_affine_quantized_2"), quantized_data = tensor<uint8, [64, 64, 3, 3]>(BLOBFILE(path = tensor<string, []>("@model_path/weights/weight.bin"), offset = tensor<uint64, []>(2752))), scale = tensor<fp16, [64]>(BLOBFILE(path = tensor<string, []>("@model_path/weights/weight.bin"), offset = tensor<uint64, []>(39808))), zero_point = tensor<uint8, [64]>(BLOBFILE(path = tensor<string, []>("@model_path/weights/weight.bin"), offset = tensor<uint64, []>(39680)))];
            tensor<fp16, [1, 64, 600, 600]> input_5_cast = conv(dilations = var_57, groups = var_27, pad = input_5_pad_0, pad_type = input_5_pad_type_0, strides = var_55, weight = drunet_m_down1_0_res_0_weight_to_fp16_affine_quantized_2, x = input_3_cast);
            tensor<fp16, [1, 64, 600, 600]> input_7_cast = relu(x = input_5_cast);
            tensor<int32, [2]> var_62 = const()[name = tensor<string, []>("op_62"), val = tensor<int32, [2]>([1, 1])];
            tensor<int32, [2]> var_64 = const()[name = tensor<string, []>("op_64"), val = tensor<int32, [2]>([1, 1])];
            tensor<string, []> var_66_pad_type_0 = const()[name = tensor<string, []>("op_66_pad_type_0"), val = tensor<string, []>("custom")];
            tensor<int32, [4]> var_66_pad_0 = const()[name = tensor<string, []>("op_66_pad_0"), val = tensor<int32, [4]>([1, 1, 1, 1])];
            tensor<fp16, [64, 64, 3, 3]> drunet_m_down1_0_res_2_weight_to_fp16_affine_quantized_2 = constexpr_affine_dequantize()[axis = tensor<int32, []>(0), name = tensor<string, []>("drunet_m_down1_0_res_2_weight_to_fp16_affine_quantized_2"), quantized_data = tensor<uint8, [64, 64, 3, 3]>(BLOBFILE(path = tensor<string, []>("@model_path/weights/weight.bin"), offset = tensor<uint64, []>(40000))), scale = tensor<fp16, [64]>(BLOBFILE(path = tensor<string, []>("@model_path/weights/weight.bin"), offset = tensor<uint64, []>(77056))), zero_point = tensor<uint8, [64]>(BLOBFILE(path = tensor<string, []>("@model_path/weights/weight.bin"), offset = tensor<uint64, []>(76928)))];
            tensor<fp16, [1, 64, 600, 600]> var_66_cast = conv(dilations = var_64, groups = var_27, pad = var_66_pad_0, pad_type = var_66_pad_type_0, strides = var_62, weight = drunet_m_down1_0_res_2_weight_to_fp16_affine_quantized_2, x = input_7_cast);
            tensor<fp16, [1, 64, 600, 600]> input_9_cast = add(x = input_3_cast, y = var_66_cast);
            tensor<int32, [2]> var_72 = const()[name = tensor<string, []>("op_72"), val = tensor<int32, [2]>([1, 1])];
            tensor<int32, [2]> var_74 = const()[name = tensor<string, []>("op_74"), val = tensor<int32, [2]>([1, 1])];
            tensor<string, []> input_11_pad_type_0 = const()[name = tensor<string, []>("input_11_pad_type_0"), val = tensor<string, []>("custom")];
            tensor<int32, [4]> input_11_pad_0 = const()[name = tensor<string, []>("input_11_pad_0"), val = tensor<int32, [4]>([1, 1, 1, 1])];
            tensor<fp16, [64, 64, 3, 3]> drunet_m_down1_1_res_0_weight_to_fp16_affine_quantized_2 = constexpr_affine_dequantize()[axis = tensor<int32, []>(0), name = tensor<string, []>("drunet_m_down1_1_res_0_weight_to_fp16_affine_quantized_2"), quantized_data = tensor<uint8, [64, 64, 3, 3]>(BLOBFILE(path = tensor<string, []>("@model_path/weights/weight.bin"), offset = tensor<uint64, []>(77248))), scale = tensor<fp16, [64]>(BLOBFILE(path = tensor<string, []>("@model_path/weights/weight.bin"), offset = tensor<uint64, []>(114304))), zero_point = tensor<uint8, [64]>(BLOBFILE(path = tensor<string, []>("@model_path/weights/weight.bin"), offset = tensor<uint64, []>(114176)))];
            tensor<fp16, [1, 64, 600, 600]> input_11_cast = conv(dilations = var_74, groups = var_27, pad = input_11_pad_0, pad_type = input_11_pad_type_0, strides = var_72, weight = drunet_m_down1_1_res_0_weight_to_fp16_affine_quantized_2, x = input_9_cast);
            tensor<fp16, [1, 64, 600, 600]> input_13_cast = relu(x = input_11_cast);
            tensor<int32, [2]> var_79 = const()[name = tensor<string, []>("op_79"), val = tensor<int32, [2]>([1, 1])];
            tensor<int32, [2]> var_81 = const()[name = tensor<string, []>("op_81"), val = tensor<int32, [2]>([1, 1])];
            tensor<string, []> var_83_pad_type_0 = const()[name = tensor<string, []>("op_83_pad_type_0"), val = tensor<string, []>("custom")];
            tensor<int32, [4]> var_83_pad_0 = const()[name = tensor<string, []>("op_83_pad_0"), val = tensor<int32, [4]>([1, 1, 1, 1])];
            tensor<fp16, [64, 64, 3, 3]> drunet_m_down1_1_res_2_weight_to_fp16_affine_quantized_2 = constexpr_affine_dequantize()[axis = tensor<int32, []>(0), name = tensor<string, []>("drunet_m_down1_1_res_2_weight_to_fp16_affine_quantized_2"), quantized_data = tensor<uint8, [64, 64, 3, 3]>(BLOBFILE(path = tensor<string, []>("@model_path/weights/weight.bin"), offset = tensor<uint64, []>(114496))), scale = tensor<fp16, [64]>(BLOBFILE(path = tensor<string, []>("@model_path/weights/weight.bin"), offset = tensor<uint64, []>(151552))), zero_point = tensor<uint8, [64]>(BLOBFILE(path = tensor<string, []>("@model_path/weights/weight.bin"), offset = tensor<uint64, []>(151424)))];
            tensor<fp16, [1, 64, 600, 600]> var_83_cast = conv(dilations = var_81, groups = var_27, pad = var_83_pad_0, pad_type = var_83_pad_type_0, strides = var_79, weight = drunet_m_down1_1_res_2_weight_to_fp16_affine_quantized_2, x = input_13_cast);
            tensor<fp16, [1, 64, 600, 600]> input_15_cast = add(x = input_9_cast, y = var_83_cast);
            tensor<int32, [2]> var_89 = const()[name = tensor<string, []>("op_89"), val = tensor<int32, [2]>([1, 1])];
            tensor<int32, [2]> var_91 = const()[name = tensor<string, []>("op_91"), val = tensor<int32, [2]>([1, 1])];
            tensor<string, []> input_17_pad_type_0 = const()[name = tensor<string, []>("input_17_pad_type_0"), val = tensor<string, []>("custom")];
            tensor<int32, [4]> input_17_pad_0 = const()[name = tensor<string, []>("input_17_pad_0"), val = tensor<int32, [4]>([1, 1, 1, 1])];
            tensor<fp16, [64, 64, 3, 3]> drunet_m_down1_2_res_0_weight_to_fp16_affine_quantized_2 = constexpr_affine_dequantize()[axis = tensor<int32, []>(0), name = tensor<string, []>("drunet_m_down1_2_res_0_weight_to_fp16_affine_quantized_2"), quantized_data = tensor<uint8, [64, 64, 3, 3]>(BLOBFILE(path = tensor<string, []>("@model_path/weights/weight.bin"), offset = tensor<uint64, []>(151744))), scale = tensor<fp16, [64]>(BLOBFILE(path = tensor<string, []>("@model_path/weights/weight.bin"), offset = tensor<uint64, []>(188800))), zero_point = tensor<uint8, [64]>(BLOBFILE(path = tensor<string, []>("@model_path/weights/weight.bin"), offset = tensor<uint64, []>(188672)))];
            tensor<fp16, [1, 64, 600, 600]> input_17_cast = conv(dilations = var_91, groups = var_27, pad = input_17_pad_0, pad_type = input_17_pad_type_0, strides = var_89, weight = drunet_m_down1_2_res_0_weight_to_fp16_affine_quantized_2, x = input_15_cast);
            tensor<fp16, [1, 64, 600, 600]> input_19_cast = relu(x = input_17_cast);
            tensor<int32, [2]> var_96 = const()[name = tensor<string, []>("op_96"), val = tensor<int32, [2]>([1, 1])];
            tensor<int32, [2]> var_98 = const()[name = tensor<string, []>("op_98"), val = tensor<int32, [2]>([1, 1])];
            tensor<string, []> var_100_pad_type_0 = const()[name = tensor<string, []>("op_100_pad_type_0"), val = tensor<string, []>("custom")];
            tensor<int32, [4]> var_100_pad_0 = const()[name = tensor<string, []>("op_100_pad_0"), val = tensor<int32, [4]>([1, 1, 1, 1])];
            tensor<fp16, [64, 64, 3, 3]> drunet_m_down1_2_res_2_weight_to_fp16_affine_quantized_2 = constexpr_affine_dequantize()[axis = tensor<int32, []>(0), name = tensor<string, []>("drunet_m_down1_2_res_2_weight_to_fp16_affine_quantized_2"), quantized_data = tensor<uint8, [64, 64, 3, 3]>(BLOBFILE(path = tensor<string, []>("@model_path/weights/weight.bin"), offset = tensor<uint64, []>(188992))), scale = tensor<fp16, [64]>(BLOBFILE(path = tensor<string, []>("@model_path/weights/weight.bin"), offset = tensor<uint64, []>(226048))), zero_point = tensor<uint8, [64]>(BLOBFILE(path = tensor<string, []>("@model_path/weights/weight.bin"), offset = tensor<uint64, []>(225920)))];
            tensor<fp16, [1, 64, 600, 600]> var_100_cast = conv(dilations = var_98, groups = var_27, pad = var_100_pad_0, pad_type = var_100_pad_type_0, strides = var_96, weight = drunet_m_down1_2_res_2_weight_to_fp16_affine_quantized_2, x = input_19_cast);
            tensor<fp16, [1, 64, 600, 600]> input_21_cast = add(x = input_15_cast, y = var_100_cast);
            tensor<int32, [2]> var_106 = const()[name = tensor<string, []>("op_106"), val = tensor<int32, [2]>([1, 1])];
            tensor<int32, [2]> var_108 = const()[name = tensor<string, []>("op_108"), val = tensor<int32, [2]>([1, 1])];
            tensor<string, []> input_23_pad_type_0 = const()[name = tensor<string, []>("input_23_pad_type_0"), val = tensor<string, []>("custom")];
            tensor<int32, [4]> input_23_pad_0 = const()[name = tensor<string, []>("input_23_pad_0"), val = tensor<int32, [4]>([1, 1, 1, 1])];
            tensor<fp16, [64, 64, 3, 3]> drunet_m_down1_3_res_0_weight_to_fp16_affine_quantized_2 = constexpr_affine_dequantize()[axis = tensor<int32, []>(0), name = tensor<string, []>("drunet_m_down1_3_res_0_weight_to_fp16_affine_quantized_2"), quantized_data = tensor<uint8, [64, 64, 3, 3]>(BLOBFILE(path = tensor<string, []>("@model_path/weights/weight.bin"), offset = tensor<uint64, []>(226240))), scale = tensor<fp16, [64]>(BLOBFILE(path = tensor<string, []>("@model_path/weights/weight.bin"), offset = tensor<uint64, []>(263296))), zero_point = tensor<uint8, [64]>(BLOBFILE(path = tensor<string, []>("@model_path/weights/weight.bin"), offset = tensor<uint64, []>(263168)))];
            tensor<fp16, [1, 64, 600, 600]> input_23_cast = conv(dilations = var_108, groups = var_27, pad = input_23_pad_0, pad_type = input_23_pad_type_0, strides = var_106, weight = drunet_m_down1_3_res_0_weight_to_fp16_affine_quantized_2, x = input_21_cast);
            tensor<fp16, [1, 64, 600, 600]> input_25_cast = relu(x = input_23_cast);
            tensor<int32, [2]> var_113 = const()[name = tensor<string, []>("op_113"), val = tensor<int32, [2]>([1, 1])];
            tensor<int32, [2]> var_115 = const()[name = tensor<string, []>("op_115"), val = tensor<int32, [2]>([1, 1])];
            tensor<string, []> var_117_pad_type_0 = const()[name = tensor<string, []>("op_117_pad_type_0"), val = tensor<string, []>("custom")];
            tensor<int32, [4]> var_117_pad_0 = const()[name = tensor<string, []>("op_117_pad_0"), val = tensor<int32, [4]>([1, 1, 1, 1])];
            tensor<fp16, [64, 64, 3, 3]> drunet_m_down1_3_res_2_weight_to_fp16_affine_quantized_2 = constexpr_affine_dequantize()[axis = tensor<int32, []>(0), name = tensor<string, []>("drunet_m_down1_3_res_2_weight_to_fp16_affine_quantized_2"), quantized_data = tensor<uint8, [64, 64, 3, 3]>(BLOBFILE(path = tensor<string, []>("@model_path/weights/weight.bin"), offset = tensor<uint64, []>(263488))), scale = tensor<fp16, [64]>(BLOBFILE(path = tensor<string, []>("@model_path/weights/weight.bin"), offset = tensor<uint64, []>(300544))), zero_point = tensor<uint8, [64]>(BLOBFILE(path = tensor<string, []>("@model_path/weights/weight.bin"), offset = tensor<uint64, []>(300416)))];
            tensor<fp16, [1, 64, 600, 600]> var_117_cast = conv(dilations = var_115, groups = var_27, pad = var_117_pad_0, pad_type = var_117_pad_type_0, strides = var_113, weight = drunet_m_down1_3_res_2_weight_to_fp16_affine_quantized_2, x = input_25_cast);
            tensor<fp16, [1, 64, 600, 600]> input_27_cast = add(x = input_21_cast, y = var_117_cast);
            tensor<int32, [2]> var_120 = const()[name = tensor<string, []>("op_120"), val = tensor<int32, [2]>([2, 2])];
            tensor<int32, [2]> var_122 = const()[name = tensor<string, []>("op_122"), val = tensor<int32, [2]>([1, 1])];
            tensor<string, []> input_29_pad_type_0 = const()[name = tensor<string, []>("input_29_pad_type_0"), val = tensor<string, []>("custom")];
            tensor<int32, [4]> input_29_pad_0 = const()[name = tensor<string, []>("input_29_pad_0"), val = tensor<int32, [4]>([0, 0, 0, 0])];
            tensor<fp16, [128, 64, 2, 2]> drunet_m_down1_4_weight_to_fp16_affine_quantized_2 = constexpr_affine_dequantize()[axis = tensor<int32, []>(0), name = tensor<string, []>("drunet_m_down1_4_weight_to_fp16_affine_quantized_2"), quantized_data = tensor<uint8, [128, 64, 2, 2]>(BLOBFILE(path = tensor<string, []>("@model_path/weights/weight.bin"), offset = tensor<uint64, []>(300736))), scale = tensor<fp16, [128]>(BLOBFILE(path = tensor<string, []>("@model_path/weights/weight.bin"), offset = tensor<uint64, []>(333760))), zero_point = tensor<uint8, [128]>(BLOBFILE(path = tensor<string, []>("@model_path/weights/weight.bin"), offset = tensor<uint64, []>(333568)))];
            tensor<fp16, [1, 128, 300, 300]> input_29_cast = conv(dilations = var_122, groups = var_27, pad = input_29_pad_0, pad_type = input_29_pad_type_0, strides = var_120, weight = drunet_m_down1_4_weight_to_fp16_affine_quantized_2, x = input_27_cast);
            tensor<int32, [2]> var_134 = const()[name = tensor<string, []>("op_134"), val = tensor<int32, [2]>([1, 1])];
            tensor<int32, [2]> var_136 = const()[name = tensor<string, []>("op_136"), val = tensor<int32, [2]>([1, 1])];
            tensor<string, []> input_31_pad_type_0 = const()[name = tensor<string, []>("input_31_pad_type_0"), val = tensor<string, []>("custom")];
            tensor<int32, [4]> input_31_pad_0 = const()[name = tensor<string, []>("input_31_pad_0"), val = tensor<int32, [4]>([1, 1, 1, 1])];
            tensor<fp16, [128, 128, 3, 3]> drunet_m_down2_0_res_0_weight_to_fp16_affine_quantized_2 = constexpr_affine_dequantize()[axis = tensor<int32, []>(0), name = tensor<string, []>("drunet_m_down2_0_res_0_weight_to_fp16_affine_quantized_2"), quantized_data = tensor<uint8, [128, 128, 3, 3]>(BLOBFILE(path = tensor<string, []>("@model_path/weights/weight.bin"), offset = tensor<uint64, []>(334080))), scale = tensor<fp16, [128]>(BLOBFILE(path = tensor<string, []>("@model_path/weights/weight.bin"), offset = tensor<uint64, []>(481792))), zero_point = tensor<uint8, [128]>(BLOBFILE(path = tensor<string, []>("@model_path/weights/weight.bin"), offset = tensor<uint64, []>(481600)))];
            tensor<fp16, [1, 128, 300, 300]> input_31_cast = conv(dilations = var_136, groups = var_27, pad = input_31_pad_0, pad_type = input_31_pad_type_0, strides = var_134, weight = drunet_m_down2_0_res_0_weight_to_fp16_affine_quantized_2, x = input_29_cast);
            tensor<fp16, [1, 128, 300, 300]> input_33_cast = relu(x = input_31_cast);
            tensor<int32, [2]> var_141 = const()[name = tensor<string, []>("op_141"), val = tensor<int32, [2]>([1, 1])];
            tensor<int32, [2]> var_143 = const()[name = tensor<string, []>("op_143"), val = tensor<int32, [2]>([1, 1])];
            tensor<string, []> var_145_pad_type_0 = const()[name = tensor<string, []>("op_145_pad_type_0"), val = tensor<string, []>("custom")];
            tensor<int32, [4]> var_145_pad_0 = const()[name = tensor<string, []>("op_145_pad_0"), val = tensor<int32, [4]>([1, 1, 1, 1])];
            tensor<fp16, [128, 128, 3, 3]> drunet_m_down2_0_res_2_weight_to_fp16_affine_quantized_2 = constexpr_affine_dequantize()[axis = tensor<int32, []>(0), name = tensor<string, []>("drunet_m_down2_0_res_2_weight_to_fp16_affine_quantized_2"), quantized_data = tensor<uint8, [128, 128, 3, 3]>(BLOBFILE(path = tensor<string, []>("@model_path/weights/weight.bin"), offset = tensor<uint64, []>(482112))), scale = tensor<fp16, [128]>(BLOBFILE(path = tensor<string, []>("@model_path/weights/weight.bin"), offset = tensor<uint64, []>(629824))), zero_point = tensor<uint8, [128]>(BLOBFILE(path = tensor<string, []>("@model_path/weights/weight.bin"), offset = tensor<uint64, []>(629632)))];
            tensor<fp16, [1, 128, 300, 300]> var_145_cast = conv(dilations = var_143, groups = var_27, pad = var_145_pad_0, pad_type = var_145_pad_type_0, strides = var_141, weight = drunet_m_down2_0_res_2_weight_to_fp16_affine_quantized_2, x = input_33_cast);
            tensor<fp16, [1, 128, 300, 300]> input_35_cast = add(x = input_29_cast, y = var_145_cast);
            tensor<int32, [2]> var_151 = const()[name = tensor<string, []>("op_151"), val = tensor<int32, [2]>([1, 1])];
            tensor<int32, [2]> var_153 = const()[name = tensor<string, []>("op_153"), val = tensor<int32, [2]>([1, 1])];
            tensor<string, []> input_37_pad_type_0 = const()[name = tensor<string, []>("input_37_pad_type_0"), val = tensor<string, []>("custom")];
            tensor<int32, [4]> input_37_pad_0 = const()[name = tensor<string, []>("input_37_pad_0"), val = tensor<int32, [4]>([1, 1, 1, 1])];
            tensor<fp16, [128, 128, 3, 3]> drunet_m_down2_1_res_0_weight_to_fp16_affine_quantized_2 = constexpr_affine_dequantize()[axis = tensor<int32, []>(0), name = tensor<string, []>("drunet_m_down2_1_res_0_weight_to_fp16_affine_quantized_2"), quantized_data = tensor<uint8, [128, 128, 3, 3]>(BLOBFILE(path = tensor<string, []>("@model_path/weights/weight.bin"), offset = tensor<uint64, []>(630144))), scale = tensor<fp16, [128]>(BLOBFILE(path = tensor<string, []>("@model_path/weights/weight.bin"), offset = tensor<uint64, []>(777856))), zero_point = tensor<uint8, [128]>(BLOBFILE(path = tensor<string, []>("@model_path/weights/weight.bin"), offset = tensor<uint64, []>(777664)))];
            tensor<fp16, [1, 128, 300, 300]> input_37_cast = conv(dilations = var_153, groups = var_27, pad = input_37_pad_0, pad_type = input_37_pad_type_0, strides = var_151, weight = drunet_m_down2_1_res_0_weight_to_fp16_affine_quantized_2, x = input_35_cast);
            tensor<fp16, [1, 128, 300, 300]> input_39_cast = relu(x = input_37_cast);
            tensor<int32, [2]> var_158 = const()[name = tensor<string, []>("op_158"), val = tensor<int32, [2]>([1, 1])];
            tensor<int32, [2]> var_160 = const()[name = tensor<string, []>("op_160"), val = tensor<int32, [2]>([1, 1])];
            tensor<string, []> var_162_pad_type_0 = const()[name = tensor<string, []>("op_162_pad_type_0"), val = tensor<string, []>("custom")];
            tensor<int32, [4]> var_162_pad_0 = const()[name = tensor<string, []>("op_162_pad_0"), val = tensor<int32, [4]>([1, 1, 1, 1])];
            tensor<fp16, [128, 128, 3, 3]> drunet_m_down2_1_res_2_weight_to_fp16_affine_quantized_2 = constexpr_affine_dequantize()[axis = tensor<int32, []>(0), name = tensor<string, []>("drunet_m_down2_1_res_2_weight_to_fp16_affine_quantized_2"), quantized_data = tensor<uint8, [128, 128, 3, 3]>(BLOBFILE(path = tensor<string, []>("@model_path/weights/weight.bin"), offset = tensor<uint64, []>(778176))), scale = tensor<fp16, [128]>(BLOBFILE(path = tensor<string, []>("@model_path/weights/weight.bin"), offset = tensor<uint64, []>(925888))), zero_point = tensor<uint8, [128]>(BLOBFILE(path = tensor<string, []>("@model_path/weights/weight.bin"), offset = tensor<uint64, []>(925696)))];
            tensor<fp16, [1, 128, 300, 300]> var_162_cast = conv(dilations = var_160, groups = var_27, pad = var_162_pad_0, pad_type = var_162_pad_type_0, strides = var_158, weight = drunet_m_down2_1_res_2_weight_to_fp16_affine_quantized_2, x = input_39_cast);
            tensor<fp16, [1, 128, 300, 300]> input_41_cast = add(x = input_35_cast, y = var_162_cast);
            tensor<int32, [2]> var_168 = const()[name = tensor<string, []>("op_168"), val = tensor<int32, [2]>([1, 1])];
            tensor<int32, [2]> var_170 = const()[name = tensor<string, []>("op_170"), val = tensor<int32, [2]>([1, 1])];
            tensor<string, []> input_43_pad_type_0 = const()[name = tensor<string, []>("input_43_pad_type_0"), val = tensor<string, []>("custom")];
            tensor<int32, [4]> input_43_pad_0 = const()[name = tensor<string, []>("input_43_pad_0"), val = tensor<int32, [4]>([1, 1, 1, 1])];
            tensor<fp16, [128, 128, 3, 3]> drunet_m_down2_2_res_0_weight_to_fp16_affine_quantized_2 = constexpr_affine_dequantize()[axis = tensor<int32, []>(0), name = tensor<string, []>("drunet_m_down2_2_res_0_weight_to_fp16_affine_quantized_2"), quantized_data = tensor<uint8, [128, 128, 3, 3]>(BLOBFILE(path = tensor<string, []>("@model_path/weights/weight.bin"), offset = tensor<uint64, []>(926208))), scale = tensor<fp16, [128]>(BLOBFILE(path = tensor<string, []>("@model_path/weights/weight.bin"), offset = tensor<uint64, []>(1073920))), zero_point = tensor<uint8, [128]>(BLOBFILE(path = tensor<string, []>("@model_path/weights/weight.bin"), offset = tensor<uint64, []>(1073728)))];
            tensor<fp16, [1, 128, 300, 300]> input_43_cast = conv(dilations = var_170, groups = var_27, pad = input_43_pad_0, pad_type = input_43_pad_type_0, strides = var_168, weight = drunet_m_down2_2_res_0_weight_to_fp16_affine_quantized_2, x = input_41_cast);
            tensor<fp16, [1, 128, 300, 300]> input_45_cast = relu(x = input_43_cast);
            tensor<int32, [2]> var_175 = const()[name = tensor<string, []>("op_175"), val = tensor<int32, [2]>([1, 1])];
            tensor<int32, [2]> var_177 = const()[name = tensor<string, []>("op_177"), val = tensor<int32, [2]>([1, 1])];
            tensor<string, []> var_179_pad_type_0 = const()[name = tensor<string, []>("op_179_pad_type_0"), val = tensor<string, []>("custom")];
            tensor<int32, [4]> var_179_pad_0 = const()[name = tensor<string, []>("op_179_pad_0"), val = tensor<int32, [4]>([1, 1, 1, 1])];
            tensor<fp16, [128, 128, 3, 3]> drunet_m_down2_2_res_2_weight_to_fp16_affine_quantized_2 = constexpr_affine_dequantize()[axis = tensor<int32, []>(0), name = tensor<string, []>("drunet_m_down2_2_res_2_weight_to_fp16_affine_quantized_2"), quantized_data = tensor<uint8, [128, 128, 3, 3]>(BLOBFILE(path = tensor<string, []>("@model_path/weights/weight.bin"), offset = tensor<uint64, []>(1074240))), scale = tensor<fp16, [128]>(BLOBFILE(path = tensor<string, []>("@model_path/weights/weight.bin"), offset = tensor<uint64, []>(1221952))), zero_point = tensor<uint8, [128]>(BLOBFILE(path = tensor<string, []>("@model_path/weights/weight.bin"), offset = tensor<uint64, []>(1221760)))];
            tensor<fp16, [1, 128, 300, 300]> var_179_cast = conv(dilations = var_177, groups = var_27, pad = var_179_pad_0, pad_type = var_179_pad_type_0, strides = var_175, weight = drunet_m_down2_2_res_2_weight_to_fp16_affine_quantized_2, x = input_45_cast);
            tensor<fp16, [1, 128, 300, 300]> input_47_cast = add(x = input_41_cast, y = var_179_cast);
            tensor<int32, [2]> var_185 = const()[name = tensor<string, []>("op_185"), val = tensor<int32, [2]>([1, 1])];
            tensor<int32, [2]> var_187 = const()[name = tensor<string, []>("op_187"), val = tensor<int32, [2]>([1, 1])];
            tensor<string, []> input_49_pad_type_0 = const()[name = tensor<string, []>("input_49_pad_type_0"), val = tensor<string, []>("custom")];
            tensor<int32, [4]> input_49_pad_0 = const()[name = tensor<string, []>("input_49_pad_0"), val = tensor<int32, [4]>([1, 1, 1, 1])];
            tensor<fp16, [128, 128, 3, 3]> drunet_m_down2_3_res_0_weight_to_fp16_affine_quantized_2 = constexpr_affine_dequantize()[axis = tensor<int32, []>(0), name = tensor<string, []>("drunet_m_down2_3_res_0_weight_to_fp16_affine_quantized_2"), quantized_data = tensor<uint8, [128, 128, 3, 3]>(BLOBFILE(path = tensor<string, []>("@model_path/weights/weight.bin"), offset = tensor<uint64, []>(1222272))), scale = tensor<fp16, [128]>(BLOBFILE(path = tensor<string, []>("@model_path/weights/weight.bin"), offset = tensor<uint64, []>(1369984))), zero_point = tensor<uint8, [128]>(BLOBFILE(path = tensor<string, []>("@model_path/weights/weight.bin"), offset = tensor<uint64, []>(1369792)))];
            tensor<fp16, [1, 128, 300, 300]> input_49_cast = conv(dilations = var_187, groups = var_27, pad = input_49_pad_0, pad_type = input_49_pad_type_0, strides = var_185, weight = drunet_m_down2_3_res_0_weight_to_fp16_affine_quantized_2, x = input_47_cast);
            tensor<fp16, [1, 128, 300, 300]> input_51_cast = relu(x = input_49_cast);
            tensor<int32, [2]> var_192 = const()[name = tensor<string, []>("op_192"), val = tensor<int32, [2]>([1, 1])];
            tensor<int32, [2]> var_194 = const()[name = tensor<string, []>("op_194"), val = tensor<int32, [2]>([1, 1])];
            tensor<string, []> var_196_pad_type_0 = const()[name = tensor<string, []>("op_196_pad_type_0"), val = tensor<string, []>("custom")];
            tensor<int32, [4]> var_196_pad_0 = const()[name = tensor<string, []>("op_196_pad_0"), val = tensor<int32, [4]>([1, 1, 1, 1])];
            tensor<fp16, [128, 128, 3, 3]> drunet_m_down2_3_res_2_weight_to_fp16_affine_quantized_2 = constexpr_affine_dequantize()[axis = tensor<int32, []>(0), name = tensor<string, []>("drunet_m_down2_3_res_2_weight_to_fp16_affine_quantized_2"), quantized_data = tensor<uint8, [128, 128, 3, 3]>(BLOBFILE(path = tensor<string, []>("@model_path/weights/weight.bin"), offset = tensor<uint64, []>(1370304))), scale = tensor<fp16, [128]>(BLOBFILE(path = tensor<string, []>("@model_path/weights/weight.bin"), offset = tensor<uint64, []>(1518016))), zero_point = tensor<uint8, [128]>(BLOBFILE(path = tensor<string, []>("@model_path/weights/weight.bin"), offset = tensor<uint64, []>(1517824)))];
            tensor<fp16, [1, 128, 300, 300]> var_196_cast = conv(dilations = var_194, groups = var_27, pad = var_196_pad_0, pad_type = var_196_pad_type_0, strides = var_192, weight = drunet_m_down2_3_res_2_weight_to_fp16_affine_quantized_2, x = input_51_cast);
            tensor<fp16, [1, 128, 300, 300]> input_53_cast = add(x = input_47_cast, y = var_196_cast);
            tensor<int32, [2]> var_199 = const()[name = tensor<string, []>("op_199"), val = tensor<int32, [2]>([2, 2])];
            tensor<int32, [2]> var_201 = const()[name = tensor<string, []>("op_201"), val = tensor<int32, [2]>([1, 1])];
            tensor<string, []> input_55_pad_type_0 = const()[name = tensor<string, []>("input_55_pad_type_0"), val = tensor<string, []>("custom")];
            tensor<int32, [4]> input_55_pad_0 = const()[name = tensor<string, []>("input_55_pad_0"), val = tensor<int32, [4]>([0, 0, 0, 0])];
            tensor<fp16, [256, 128, 2, 2]> drunet_m_down2_4_weight_to_fp16_affine_quantized_2 = constexpr_affine_dequantize()[axis = tensor<int32, []>(0), name = tensor<string, []>("drunet_m_down2_4_weight_to_fp16_affine_quantized_2"), quantized_data = tensor<uint8, [256, 128, 2, 2]>(BLOBFILE(path = tensor<string, []>("@model_path/weights/weight.bin"), offset = tensor<uint64, []>(1518336))), scale = tensor<fp16, [256]>(BLOBFILE(path = tensor<string, []>("@model_path/weights/weight.bin"), offset = tensor<uint64, []>(1649792))), zero_point = tensor<uint8, [256]>(BLOBFILE(path = tensor<string, []>("@model_path/weights/weight.bin"), offset = tensor<uint64, []>(1649472)))];
            tensor<fp16, [1, 256, 150, 150]> input_55_cast = conv(dilations = var_201, groups = var_27, pad = input_55_pad_0, pad_type = input_55_pad_type_0, strides = var_199, weight = drunet_m_down2_4_weight_to_fp16_affine_quantized_2, x = input_53_cast);
            tensor<int32, [2]> var_213 = const()[name = tensor<string, []>("op_213"), val = tensor<int32, [2]>([1, 1])];
            tensor<int32, [2]> var_215 = const()[name = tensor<string, []>("op_215"), val = tensor<int32, [2]>([1, 1])];
            tensor<string, []> input_57_pad_type_0 = const()[name = tensor<string, []>("input_57_pad_type_0"), val = tensor<string, []>("custom")];
            tensor<int32, [4]> input_57_pad_0 = const()[name = tensor<string, []>("input_57_pad_0"), val = tensor<int32, [4]>([1, 1, 1, 1])];
            tensor<fp16, [256, 256, 3, 3]> drunet_m_down3_0_res_0_weight_to_fp16_affine_quantized_2 = constexpr_affine_dequantize()[axis = tensor<int32, []>(0), name = tensor<string, []>("drunet_m_down3_0_res_0_weight_to_fp16_affine_quantized_2"), quantized_data = tensor<uint8, [256, 256, 3, 3]>(BLOBFILE(path = tensor<string, []>("@model_path/weights/weight.bin"), offset = tensor<uint64, []>(1650368))), scale = tensor<fp16, [256]>(BLOBFILE(path = tensor<string, []>("@model_path/weights/weight.bin"), offset = tensor<uint64, []>(2240576))), zero_point = tensor<uint8, [256]>(BLOBFILE(path = tensor<string, []>("@model_path/weights/weight.bin"), offset = tensor<uint64, []>(2240256)))];
            tensor<fp16, [1, 256, 150, 150]> input_57_cast = conv(dilations = var_215, groups = var_27, pad = input_57_pad_0, pad_type = input_57_pad_type_0, strides = var_213, weight = drunet_m_down3_0_res_0_weight_to_fp16_affine_quantized_2, x = input_55_cast);
            tensor<fp16, [1, 256, 150, 150]> input_59_cast = relu(x = input_57_cast);
            tensor<int32, [2]> var_220 = const()[name = tensor<string, []>("op_220"), val = tensor<int32, [2]>([1, 1])];
            tensor<int32, [2]> var_222 = const()[name = tensor<string, []>("op_222"), val = tensor<int32, [2]>([1, 1])];
            tensor<string, []> var_224_pad_type_0 = const()[name = tensor<string, []>("op_224_pad_type_0"), val = tensor<string, []>("custom")];
            tensor<int32, [4]> var_224_pad_0 = const()[name = tensor<string, []>("op_224_pad_0"), val = tensor<int32, [4]>([1, 1, 1, 1])];
            tensor<fp16, [256, 256, 3, 3]> drunet_m_down3_0_res_2_weight_to_fp16_affine_quantized_2 = constexpr_affine_dequantize()[axis = tensor<int32, []>(0), name = tensor<string, []>("drunet_m_down3_0_res_2_weight_to_fp16_affine_quantized_2"), quantized_data = tensor<uint8, [256, 256, 3, 3]>(BLOBFILE(path = tensor<string, []>("@model_path/weights/weight.bin"), offset = tensor<uint64, []>(2241152))), scale = tensor<fp16, [256]>(BLOBFILE(path = tensor<string, []>("@model_path/weights/weight.bin"), offset = tensor<uint64, []>(2831360))), zero_point = tensor<uint8, [256]>(BLOBFILE(path = tensor<string, []>("@model_path/weights/weight.bin"), offset = tensor<uint64, []>(2831040)))];
            tensor<fp16, [1, 256, 150, 150]> var_224_cast = conv(dilations = var_222, groups = var_27, pad = var_224_pad_0, pad_type = var_224_pad_type_0, strides = var_220, weight = drunet_m_down3_0_res_2_weight_to_fp16_affine_quantized_2, x = input_59_cast);
            tensor<fp16, [1, 256, 150, 150]> input_61_cast = add(x = input_55_cast, y = var_224_cast);
            tensor<int32, [2]> var_230 = const()[name = tensor<string, []>("op_230"), val = tensor<int32, [2]>([1, 1])];
            tensor<int32, [2]> var_232 = const()[name = tensor<string, []>("op_232"), val = tensor<int32, [2]>([1, 1])];
            tensor<string, []> input_63_pad_type_0 = const()[name = tensor<string, []>("input_63_pad_type_0"), val = tensor<string, []>("custom")];
            tensor<int32, [4]> input_63_pad_0 = const()[name = tensor<string, []>("input_63_pad_0"), val = tensor<int32, [4]>([1, 1, 1, 1])];
            tensor<fp16, [256, 256, 3, 3]> drunet_m_down3_1_res_0_weight_to_fp16_affine_quantized_2 = constexpr_affine_dequantize()[axis = tensor<int32, []>(0), name = tensor<string, []>("drunet_m_down3_1_res_0_weight_to_fp16_affine_quantized_2"), quantized_data = tensor<uint8, [256, 256, 3, 3]>(BLOBFILE(path = tensor<string, []>("@model_path/weights/weight.bin"), offset = tensor<uint64, []>(2831936))), scale = tensor<fp16, [256]>(BLOBFILE(path = tensor<string, []>("@model_path/weights/weight.bin"), offset = tensor<uint64, []>(3422144))), zero_point = tensor<uint8, [256]>(BLOBFILE(path = tensor<string, []>("@model_path/weights/weight.bin"), offset = tensor<uint64, []>(3421824)))];
            tensor<fp16, [1, 256, 150, 150]> input_63_cast = conv(dilations = var_232, groups = var_27, pad = input_63_pad_0, pad_type = input_63_pad_type_0, strides = var_230, weight = drunet_m_down3_1_res_0_weight_to_fp16_affine_quantized_2, x = input_61_cast);
            tensor<fp16, [1, 256, 150, 150]> input_65_cast = relu(x = input_63_cast);
            tensor<int32, [2]> var_237 = const()[name = tensor<string, []>("op_237"), val = tensor<int32, [2]>([1, 1])];
            tensor<int32, [2]> var_239 = const()[name = tensor<string, []>("op_239"), val = tensor<int32, [2]>([1, 1])];
            tensor<string, []> var_241_pad_type_0 = const()[name = tensor<string, []>("op_241_pad_type_0"), val = tensor<string, []>("custom")];
            tensor<int32, [4]> var_241_pad_0 = const()[name = tensor<string, []>("op_241_pad_0"), val = tensor<int32, [4]>([1, 1, 1, 1])];
            tensor<fp16, [256, 256, 3, 3]> drunet_m_down3_1_res_2_weight_to_fp16_affine_quantized_2 = constexpr_affine_dequantize()[axis = tensor<int32, []>(0), name = tensor<string, []>("drunet_m_down3_1_res_2_weight_to_fp16_affine_quantized_2"), quantized_data = tensor<uint8, [256, 256, 3, 3]>(BLOBFILE(path = tensor<string, []>("@model_path/weights/weight.bin"), offset = tensor<uint64, []>(3422720))), scale = tensor<fp16, [256]>(BLOBFILE(path = tensor<string, []>("@model_path/weights/weight.bin"), offset = tensor<uint64, []>(4012928))), zero_point = tensor<uint8, [256]>(BLOBFILE(path = tensor<string, []>("@model_path/weights/weight.bin"), offset = tensor<uint64, []>(4012608)))];
            tensor<fp16, [1, 256, 150, 150]> var_241_cast = conv(dilations = var_239, groups = var_27, pad = var_241_pad_0, pad_type = var_241_pad_type_0, strides = var_237, weight = drunet_m_down3_1_res_2_weight_to_fp16_affine_quantized_2, x = input_65_cast);
            tensor<fp16, [1, 256, 150, 150]> input_67_cast = add(x = input_61_cast, y = var_241_cast);
            tensor<int32, [2]> var_247 = const()[name = tensor<string, []>("op_247"), val = tensor<int32, [2]>([1, 1])];
            tensor<int32, [2]> var_249 = const()[name = tensor<string, []>("op_249"), val = tensor<int32, [2]>([1, 1])];
            tensor<string, []> input_69_pad_type_0 = const()[name = tensor<string, []>("input_69_pad_type_0"), val = tensor<string, []>("custom")];
            tensor<int32, [4]> input_69_pad_0 = const()[name = tensor<string, []>("input_69_pad_0"), val = tensor<int32, [4]>([1, 1, 1, 1])];
            tensor<fp16, [256, 256, 3, 3]> drunet_m_down3_2_res_0_weight_to_fp16_affine_quantized_2 = constexpr_affine_dequantize()[axis = tensor<int32, []>(0), name = tensor<string, []>("drunet_m_down3_2_res_0_weight_to_fp16_affine_quantized_2"), quantized_data = tensor<uint8, [256, 256, 3, 3]>(BLOBFILE(path = tensor<string, []>("@model_path/weights/weight.bin"), offset = tensor<uint64, []>(4013504))), scale = tensor<fp16, [256]>(BLOBFILE(path = tensor<string, []>("@model_path/weights/weight.bin"), offset = tensor<uint64, []>(4603712))), zero_point = tensor<uint8, [256]>(BLOBFILE(path = tensor<string, []>("@model_path/weights/weight.bin"), offset = tensor<uint64, []>(4603392)))];
            tensor<fp16, [1, 256, 150, 150]> input_69_cast = conv(dilations = var_249, groups = var_27, pad = input_69_pad_0, pad_type = input_69_pad_type_0, strides = var_247, weight = drunet_m_down3_2_res_0_weight_to_fp16_affine_quantized_2, x = input_67_cast);
            tensor<fp16, [1, 256, 150, 150]> input_71_cast = relu(x = input_69_cast);
            tensor<int32, [2]> var_254 = const()[name = tensor<string, []>("op_254"), val = tensor<int32, [2]>([1, 1])];
            tensor<int32, [2]> var_256 = const()[name = tensor<string, []>("op_256"), val = tensor<int32, [2]>([1, 1])];
            tensor<string, []> var_258_pad_type_0 = const()[name = tensor<string, []>("op_258_pad_type_0"), val = tensor<string, []>("custom")];
            tensor<int32, [4]> var_258_pad_0 = const()[name = tensor<string, []>("op_258_pad_0"), val = tensor<int32, [4]>([1, 1, 1, 1])];
            tensor<fp16, [256, 256, 3, 3]> drunet_m_down3_2_res_2_weight_to_fp16_affine_quantized_2 = constexpr_affine_dequantize()[axis = tensor<int32, []>(0), name = tensor<string, []>("drunet_m_down3_2_res_2_weight_to_fp16_affine_quantized_2"), quantized_data = tensor<uint8, [256, 256, 3, 3]>(BLOBFILE(path = tensor<string, []>("@model_path/weights/weight.bin"), offset = tensor<uint64, []>(4604288))), scale = tensor<fp16, [256]>(BLOBFILE(path = tensor<string, []>("@model_path/weights/weight.bin"), offset = tensor<uint64, []>(5194496))), zero_point = tensor<uint8, [256]>(BLOBFILE(path = tensor<string, []>("@model_path/weights/weight.bin"), offset = tensor<uint64, []>(5194176)))];
            tensor<fp16, [1, 256, 150, 150]> var_258_cast = conv(dilations = var_256, groups = var_27, pad = var_258_pad_0, pad_type = var_258_pad_type_0, strides = var_254, weight = drunet_m_down3_2_res_2_weight_to_fp16_affine_quantized_2, x = input_71_cast);
            tensor<fp16, [1, 256, 150, 150]> input_73_cast = add(x = input_67_cast, y = var_258_cast);
            tensor<int32, [2]> var_264 = const()[name = tensor<string, []>("op_264"), val = tensor<int32, [2]>([1, 1])];
            tensor<int32, [2]> var_266 = const()[name = tensor<string, []>("op_266"), val = tensor<int32, [2]>([1, 1])];
            tensor<string, []> input_75_pad_type_0 = const()[name = tensor<string, []>("input_75_pad_type_0"), val = tensor<string, []>("custom")];
            tensor<int32, [4]> input_75_pad_0 = const()[name = tensor<string, []>("input_75_pad_0"), val = tensor<int32, [4]>([1, 1, 1, 1])];
            tensor<fp16, [256, 256, 3, 3]> drunet_m_down3_3_res_0_weight_to_fp16_affine_quantized_2 = constexpr_affine_dequantize()[axis = tensor<int32, []>(0), name = tensor<string, []>("drunet_m_down3_3_res_0_weight_to_fp16_affine_quantized_2"), quantized_data = tensor<uint8, [256, 256, 3, 3]>(BLOBFILE(path = tensor<string, []>("@model_path/weights/weight.bin"), offset = tensor<uint64, []>(5195072))), scale = tensor<fp16, [256]>(BLOBFILE(path = tensor<string, []>("@model_path/weights/weight.bin"), offset = tensor<uint64, []>(5785280))), zero_point = tensor<uint8, [256]>(BLOBFILE(path = tensor<string, []>("@model_path/weights/weight.bin"), offset = tensor<uint64, []>(5784960)))];
            tensor<fp16, [1, 256, 150, 150]> input_75_cast = conv(dilations = var_266, groups = var_27, pad = input_75_pad_0, pad_type = input_75_pad_type_0, strides = var_264, weight = drunet_m_down3_3_res_0_weight_to_fp16_affine_quantized_2, x = input_73_cast);
            tensor<fp16, [1, 256, 150, 150]> input_77_cast = relu(x = input_75_cast);
            tensor<int32, [2]> var_271 = const()[name = tensor<string, []>("op_271"), val = tensor<int32, [2]>([1, 1])];
            tensor<int32, [2]> var_273 = const()[name = tensor<string, []>("op_273"), val = tensor<int32, [2]>([1, 1])];
            tensor<string, []> var_275_pad_type_0 = const()[name = tensor<string, []>("op_275_pad_type_0"), val = tensor<string, []>("custom")];
            tensor<int32, [4]> var_275_pad_0 = const()[name = tensor<string, []>("op_275_pad_0"), val = tensor<int32, [4]>([1, 1, 1, 1])];
            tensor<fp16, [256, 256, 3, 3]> drunet_m_down3_3_res_2_weight_to_fp16_affine_quantized_2 = constexpr_affine_dequantize()[axis = tensor<int32, []>(0), name = tensor<string, []>("drunet_m_down3_3_res_2_weight_to_fp16_affine_quantized_2"), quantized_data = tensor<uint8, [256, 256, 3, 3]>(BLOBFILE(path = tensor<string, []>("@model_path/weights/weight.bin"), offset = tensor<uint64, []>(5785856))), scale = tensor<fp16, [256]>(BLOBFILE(path = tensor<string, []>("@model_path/weights/weight.bin"), offset = tensor<uint64, []>(6376064))), zero_point = tensor<uint8, [256]>(BLOBFILE(path = tensor<string, []>("@model_path/weights/weight.bin"), offset = tensor<uint64, []>(6375744)))];
            tensor<fp16, [1, 256, 150, 150]> var_275_cast = conv(dilations = var_273, groups = var_27, pad = var_275_pad_0, pad_type = var_275_pad_type_0, strides = var_271, weight = drunet_m_down3_3_res_2_weight_to_fp16_affine_quantized_2, x = input_77_cast);
            tensor<fp16, [1, 256, 150, 150]> input_79_cast = add(x = input_73_cast, y = var_275_cast);
            tensor<int32, [2]> var_278 = const()[name = tensor<string, []>("op_278"), val = tensor<int32, [2]>([2, 2])];
            tensor<int32, [2]> var_280 = const()[name = tensor<string, []>("op_280"), val = tensor<int32, [2]>([1, 1])];
            tensor<string, []> input_81_pad_type_0 = const()[name = tensor<string, []>("input_81_pad_type_0"), val = tensor<string, []>("custom")];
            tensor<int32, [4]> input_81_pad_0 = const()[name = tensor<string, []>("input_81_pad_0"), val = tensor<int32, [4]>([0, 0, 0, 0])];
            tensor<fp16, [512, 256, 2, 2]> drunet_m_down3_4_weight_to_fp16_affine_quantized_2 = constexpr_affine_dequantize()[axis = tensor<int32, []>(0), name = tensor<string, []>("drunet_m_down3_4_weight_to_fp16_affine_quantized_2"), quantized_data = tensor<uint8, [512, 256, 2, 2]>(BLOBFILE(path = tensor<string, []>("@model_path/weights/weight.bin"), offset = tensor<uint64, []>(6376640))), scale = tensor<fp16, [512]>(BLOBFILE(path = tensor<string, []>("@model_path/weights/weight.bin"), offset = tensor<uint64, []>(6901568))), zero_point = tensor<uint8, [512]>(BLOBFILE(path = tensor<string, []>("@model_path/weights/weight.bin"), offset = tensor<uint64, []>(6900992)))];
            tensor<fp16, [1, 512, 75, 75]> input_81_cast = conv(dilations = var_280, groups = var_27, pad = input_81_pad_0, pad_type = input_81_pad_type_0, strides = var_278, weight = drunet_m_down3_4_weight_to_fp16_affine_quantized_2, x = input_79_cast);
            tensor<int32, [2]> var_291 = const()[name = tensor<string, []>("op_291"), val = tensor<int32, [2]>([1, 1])];
            tensor<int32, [2]> var_293 = const()[name = tensor<string, []>("op_293"), val = tensor<int32, [2]>([1, 1])];
            tensor<string, []> input_83_pad_type_0 = const()[name = tensor<string, []>("input_83_pad_type_0"), val = tensor<string, []>("custom")];
            tensor<int32, [4]> input_83_pad_0 = const()[name = tensor<string, []>("input_83_pad_0"), val = tensor<int32, [4]>([1, 1, 1, 1])];
            tensor<fp16, [512, 512, 3, 3]> drunet_m_body_0_res_0_weight_to_fp16_affine_quantized_2 = constexpr_affine_dequantize()[axis = tensor<int32, []>(0), name = tensor<string, []>("drunet_m_body_0_res_0_weight_to_fp16_affine_quantized_2"), quantized_data = tensor<uint8, [512, 512, 3, 3]>(BLOBFILE(path = tensor<string, []>("@model_path/weights/weight.bin"), offset = tensor<uint64, []>(6902656))), scale = tensor<fp16, [512]>(BLOBFILE(path = tensor<string, []>("@model_path/weights/weight.bin"), offset = tensor<uint64, []>(9262592))), zero_point = tensor<uint8, [512]>(BLOBFILE(path = tensor<string, []>("@model_path/weights/weight.bin"), offset = tensor<uint64, []>(9262016)))];
            tensor<fp16, [1, 512, 75, 75]> input_83_cast = conv(dilations = var_293, groups = var_27, pad = input_83_pad_0, pad_type = input_83_pad_type_0, strides = var_291, weight = drunet_m_body_0_res_0_weight_to_fp16_affine_quantized_2, x = input_81_cast);
            tensor<fp16, [1, 512, 75, 75]> input_85_cast = relu(x = input_83_cast);
            tensor<int32, [2]> var_298 = const()[name = tensor<string, []>("op_298"), val = tensor<int32, [2]>([1, 1])];
            tensor<int32, [2]> var_300 = const()[name = tensor<string, []>("op_300"), val = tensor<int32, [2]>([1, 1])];
            tensor<string, []> var_302_pad_type_0 = const()[name = tensor<string, []>("op_302_pad_type_0"), val = tensor<string, []>("custom")];
            tensor<int32, [4]> var_302_pad_0 = const()[name = tensor<string, []>("op_302_pad_0"), val = tensor<int32, [4]>([1, 1, 1, 1])];
            tensor<fp16, [512, 512, 3, 3]> drunet_m_body_0_res_2_weight_to_fp16_affine_quantized_2 = constexpr_affine_dequantize()[axis = tensor<int32, []>(0), name = tensor<string, []>("drunet_m_body_0_res_2_weight_to_fp16_affine_quantized_2"), quantized_data = tensor<uint8, [512, 512, 3, 3]>(BLOBFILE(path = tensor<string, []>("@model_path/weights/weight.bin"), offset = tensor<uint64, []>(9263680))), scale = tensor<fp16, [512]>(BLOBFILE(path = tensor<string, []>("@model_path/weights/weight.bin"), offset = tensor<uint64, []>(11623616))), zero_point = tensor<uint8, [512]>(BLOBFILE(path = tensor<string, []>("@model_path/weights/weight.bin"), offset = tensor<uint64, []>(11623040)))];
            tensor<fp16, [1, 512, 75, 75]> var_302_cast = conv(dilations = var_300, groups = var_27, pad = var_302_pad_0, pad_type = var_302_pad_type_0, strides = var_298, weight = drunet_m_body_0_res_2_weight_to_fp16_affine_quantized_2, x = input_85_cast);
            tensor<fp16, [1, 512, 75, 75]> input_87_cast = add(x = input_81_cast, y = var_302_cast);
            tensor<int32, [2]> var_308 = const()[name = tensor<string, []>("op_308"), val = tensor<int32, [2]>([1, 1])];
            tensor<int32, [2]> var_310 = const()[name = tensor<string, []>("op_310"), val = tensor<int32, [2]>([1, 1])];
            tensor<string, []> input_89_pad_type_0 = const()[name = tensor<string, []>("input_89_pad_type_0"), val = tensor<string, []>("custom")];
            tensor<int32, [4]> input_89_pad_0 = const()[name = tensor<string, []>("input_89_pad_0"), val = tensor<int32, [4]>([1, 1, 1, 1])];
            tensor<fp16, [512, 512, 3, 3]> drunet_m_body_1_res_0_weight_to_fp16_affine_quantized_2 = constexpr_affine_dequantize()[axis = tensor<int32, []>(0), name = tensor<string, []>("drunet_m_body_1_res_0_weight_to_fp16_affine_quantized_2"), quantized_data = tensor<uint8, [512, 512, 3, 3]>(BLOBFILE(path = tensor<string, []>("@model_path/weights/weight.bin"), offset = tensor<uint64, []>(11624704))), scale = tensor<fp16, [512]>(BLOBFILE(path = tensor<string, []>("@model_path/weights/weight.bin"), offset = tensor<uint64, []>(13984640))), zero_point = tensor<uint8, [512]>(BLOBFILE(path = tensor<string, []>("@model_path/weights/weight.bin"), offset = tensor<uint64, []>(13984064)))];
            tensor<fp16, [1, 512, 75, 75]> input_89_cast = conv(dilations = var_310, groups = var_27, pad = input_89_pad_0, pad_type = input_89_pad_type_0, strides = var_308, weight = drunet_m_body_1_res_0_weight_to_fp16_affine_quantized_2, x = input_87_cast);
            tensor<fp16, [1, 512, 75, 75]> input_91_cast = relu(x = input_89_cast);
            tensor<int32, [2]> var_315 = const()[name = tensor<string, []>("op_315"), val = tensor<int32, [2]>([1, 1])];
            tensor<int32, [2]> var_317 = const()[name = tensor<string, []>("op_317"), val = tensor<int32, [2]>([1, 1])];
            tensor<string, []> var_319_pad_type_0 = const()[name = tensor<string, []>("op_319_pad_type_0"), val = tensor<string, []>("custom")];
            tensor<int32, [4]> var_319_pad_0 = const()[name = tensor<string, []>("op_319_pad_0"), val = tensor<int32, [4]>([1, 1, 1, 1])];
            tensor<fp16, [512, 512, 3, 3]> drunet_m_body_1_res_2_weight_to_fp16_affine_quantized_2 = constexpr_affine_dequantize()[axis = tensor<int32, []>(0), name = tensor<string, []>("drunet_m_body_1_res_2_weight_to_fp16_affine_quantized_2"), quantized_data = tensor<uint8, [512, 512, 3, 3]>(BLOBFILE(path = tensor<string, []>("@model_path/weights/weight.bin"), offset = tensor<uint64, []>(13985728))), scale = tensor<fp16, [512]>(BLOBFILE(path = tensor<string, []>("@model_path/weights/weight.bin"), offset = tensor<uint64, []>(16345664))), zero_point = tensor<uint8, [512]>(BLOBFILE(path = tensor<string, []>("@model_path/weights/weight.bin"), offset = tensor<uint64, []>(16345088)))];
            tensor<fp16, [1, 512, 75, 75]> var_319_cast = conv(dilations = var_317, groups = var_27, pad = var_319_pad_0, pad_type = var_319_pad_type_0, strides = var_315, weight = drunet_m_body_1_res_2_weight_to_fp16_affine_quantized_2, x = input_91_cast);
            tensor<fp16, [1, 512, 75, 75]> input_93_cast = add(x = input_87_cast, y = var_319_cast);
            tensor<int32, [2]> var_325 = const()[name = tensor<string, []>("op_325"), val = tensor<int32, [2]>([1, 1])];
            tensor<int32, [2]> var_327 = const()[name = tensor<string, []>("op_327"), val = tensor<int32, [2]>([1, 1])];
            tensor<string, []> input_95_pad_type_0 = const()[name = tensor<string, []>("input_95_pad_type_0"), val = tensor<string, []>("custom")];
            tensor<int32, [4]> input_95_pad_0 = const()[name = tensor<string, []>("input_95_pad_0"), val = tensor<int32, [4]>([1, 1, 1, 1])];
            tensor<fp16, [512, 512, 3, 3]> drunet_m_body_2_res_0_weight_to_fp16_affine_quantized_2 = constexpr_affine_dequantize()[axis = tensor<int32, []>(0), name = tensor<string, []>("drunet_m_body_2_res_0_weight_to_fp16_affine_quantized_2"), quantized_data = tensor<uint8, [512, 512, 3, 3]>(BLOBFILE(path = tensor<string, []>("@model_path/weights/weight.bin"), offset = tensor<uint64, []>(16346752))), scale = tensor<fp16, [512]>(BLOBFILE(path = tensor<string, []>("@model_path/weights/weight.bin"), offset = tensor<uint64, []>(18706688))), zero_point = tensor<uint8, [512]>(BLOBFILE(path = tensor<string, []>("@model_path/weights/weight.bin"), offset = tensor<uint64, []>(18706112)))];
            tensor<fp16, [1, 512, 75, 75]> input_95_cast = conv(dilations = var_327, groups = var_27, pad = input_95_pad_0, pad_type = input_95_pad_type_0, strides = var_325, weight = drunet_m_body_2_res_0_weight_to_fp16_affine_quantized_2, x = input_93_cast);
            tensor<fp16, [1, 512, 75, 75]> input_97_cast = relu(x = input_95_cast);
            tensor<int32, [2]> var_332 = const()[name = tensor<string, []>("op_332"), val = tensor<int32, [2]>([1, 1])];
            tensor<int32, [2]> var_334 = const()[name = tensor<string, []>("op_334"), val = tensor<int32, [2]>([1, 1])];
            tensor<string, []> var_336_pad_type_0 = const()[name = tensor<string, []>("op_336_pad_type_0"), val = tensor<string, []>("custom")];
            tensor<int32, [4]> var_336_pad_0 = const()[name = tensor<string, []>("op_336_pad_0"), val = tensor<int32, [4]>([1, 1, 1, 1])];
            tensor<fp16, [512, 512, 3, 3]> drunet_m_body_2_res_2_weight_to_fp16_affine_quantized_2 = constexpr_affine_dequantize()[axis = tensor<int32, []>(0), name = tensor<string, []>("drunet_m_body_2_res_2_weight_to_fp16_affine_quantized_2"), quantized_data = tensor<uint8, [512, 512, 3, 3]>(BLOBFILE(path = tensor<string, []>("@model_path/weights/weight.bin"), offset = tensor<uint64, []>(18707776))), scale = tensor<fp16, [512]>(BLOBFILE(path = tensor<string, []>("@model_path/weights/weight.bin"), offset = tensor<uint64, []>(21067712))), zero_point = tensor<uint8, [512]>(BLOBFILE(path = tensor<string, []>("@model_path/weights/weight.bin"), offset = tensor<uint64, []>(21067136)))];
            tensor<fp16, [1, 512, 75, 75]> var_336_cast = conv(dilations = var_334, groups = var_27, pad = var_336_pad_0, pad_type = var_336_pad_type_0, strides = var_332, weight = drunet_m_body_2_res_2_weight_to_fp16_affine_quantized_2, x = input_97_cast);
            tensor<fp16, [1, 512, 75, 75]> input_99_cast = add(x = input_93_cast, y = var_336_cast);
            tensor<int32, [2]> var_342 = const()[name = tensor<string, []>("op_342"), val = tensor<int32, [2]>([1, 1])];
            tensor<int32, [2]> var_344 = const()[name = tensor<string, []>("op_344"), val = tensor<int32, [2]>([1, 1])];
            tensor<string, []> input_101_pad_type_0 = const()[name = tensor<string, []>("input_101_pad_type_0"), val = tensor<string, []>("custom")];
            tensor<int32, [4]> input_101_pad_0 = const()[name = tensor<string, []>("input_101_pad_0"), val = tensor<int32, [4]>([1, 1, 1, 1])];
            tensor<fp16, [512, 512, 3, 3]> drunet_m_body_3_res_0_weight_to_fp16_affine_quantized_2 = constexpr_affine_dequantize()[axis = tensor<int32, []>(0), name = tensor<string, []>("drunet_m_body_3_res_0_weight_to_fp16_affine_quantized_2"), quantized_data = tensor<uint8, [512, 512, 3, 3]>(BLOBFILE(path = tensor<string, []>("@model_path/weights/weight.bin"), offset = tensor<uint64, []>(21068800))), scale = tensor<fp16, [512]>(BLOBFILE(path = tensor<string, []>("@model_path/weights/weight.bin"), offset = tensor<uint64, []>(23428736))), zero_point = tensor<uint8, [512]>(BLOBFILE(path = tensor<string, []>("@model_path/weights/weight.bin"), offset = tensor<uint64, []>(23428160)))];
            tensor<fp16, [1, 512, 75, 75]> input_101_cast = conv(dilations = var_344, groups = var_27, pad = input_101_pad_0, pad_type = input_101_pad_type_0, strides = var_342, weight = drunet_m_body_3_res_0_weight_to_fp16_affine_quantized_2, x = input_99_cast);
            tensor<fp16, [1, 512, 75, 75]> input_103_cast = relu(x = input_101_cast);
            tensor<int32, [2]> var_349 = const()[name = tensor<string, []>("op_349"), val = tensor<int32, [2]>([1, 1])];
            tensor<int32, [2]> var_351 = const()[name = tensor<string, []>("op_351"), val = tensor<int32, [2]>([1, 1])];
            tensor<string, []> var_353_pad_type_0 = const()[name = tensor<string, []>("op_353_pad_type_0"), val = tensor<string, []>("custom")];
            tensor<int32, [4]> var_353_pad_0 = const()[name = tensor<string, []>("op_353_pad_0"), val = tensor<int32, [4]>([1, 1, 1, 1])];
            tensor<fp16, [512, 512, 3, 3]> drunet_m_body_3_res_2_weight_to_fp16_affine_quantized_2 = constexpr_affine_dequantize()[axis = tensor<int32, []>(0), name = tensor<string, []>("drunet_m_body_3_res_2_weight_to_fp16_affine_quantized_2"), quantized_data = tensor<uint8, [512, 512, 3, 3]>(BLOBFILE(path = tensor<string, []>("@model_path/weights/weight.bin"), offset = tensor<uint64, []>(23429824))), scale = tensor<fp16, [512]>(BLOBFILE(path = tensor<string, []>("@model_path/weights/weight.bin"), offset = tensor<uint64, []>(25789760))), zero_point = tensor<uint8, [512]>(BLOBFILE(path = tensor<string, []>("@model_path/weights/weight.bin"), offset = tensor<uint64, []>(25789184)))];
            tensor<fp16, [1, 512, 75, 75]> var_353_cast = conv(dilations = var_351, groups = var_27, pad = var_353_pad_0, pad_type = var_353_pad_type_0, strides = var_349, weight = drunet_m_body_3_res_2_weight_to_fp16_affine_quantized_2, x = input_103_cast);
            tensor<fp16, [1, 512, 75, 75]> x_3_cast = add(x = input_99_cast, y = var_353_cast);
            tensor<fp16, [1, 512, 75, 75]> input_105_cast = add(x = x_3_cast, y = input_81_cast);
            tensor<int32, [2]> var_362 = const()[name = tensor<string, []>("op_362"), val = tensor<int32, [2]>([2, 2])];
            tensor<int32, [2]> var_364 = const()[name = tensor<string, []>("op_364"), val = tensor<int32, [2]>([1, 1])];
            tensor<string, []> input_107_pad_type_0 = const()[name = tensor<string, []>("input_107_pad_type_0"), val = tensor<string, []>("custom")];
            tensor<int32, [4]> input_107_pad_0 = const()[name = tensor<string, []>("input_107_pad_0"), val = tensor<int32, [4]>([0, 0, 0, 0])];
            tensor<int32, [4]> input_107_has_output_shape_output_shape_0 = const()[name = tensor<string, []>("input_107_has_output_shape_output_shape_0"), val = tensor<int32, [4]>([1, 256, 150, 150])];
            tensor<fp16, [512, 256, 2, 2]> drunet_m_up3_0_weight_to_fp16_affine_quantized_2 = constexpr_affine_dequantize()[axis = tensor<int32, []>(1), name = tensor<string, []>("drunet_m_up3_0_weight_to_fp16_affine_quantized_2"), quantized_data = tensor<uint8, [512, 256, 2, 2]>(BLOBFILE(path = tensor<string, []>("@model_path/weights/weight.bin"), offset = tensor<uint64, []>(25790848))), scale = tensor<fp16, [256]>(BLOBFILE(path = tensor<string, []>("@model_path/weights/weight.bin"), offset = tensor<uint64, []>(26315520))), zero_point = tensor<uint8, [256]>(BLOBFILE(path = tensor<string, []>("@model_path/weights/weight.bin"), offset = tensor<uint64, []>(26315200)))];
            tensor<fp16, [1, 256, 150, 150]> input_107_has_output_shape_cast = conv_transpose(dilations = var_364, groups = var_27, output_shape = input_107_has_output_shape_output_shape_0, pad = input_107_pad_0, pad_type = input_107_pad_type_0, strides = var_362, weight = drunet_m_up3_0_weight_to_fp16_affine_quantized_2, x = input_105_cast);
            tensor<int32, [2]> var_371 = const()[name = tensor<string, []>("op_371"), val = tensor<int32, [2]>([1, 1])];
            tensor<int32, [2]> var_373 = const()[name = tensor<string, []>("op_373"), val = tensor<int32, [2]>([1, 1])];
            tensor<string, []> input_109_pad_type_0 = const()[name = tensor<string, []>("input_109_pad_type_0"), val = tensor<string, []>("custom")];
            tensor<int32, [4]> input_109_pad_0 = const()[name = tensor<string, []>("input_109_pad_0"), val = tensor<int32, [4]>([1, 1, 1, 1])];
            tensor<fp16, [256, 256, 3, 3]> drunet_m_up3_1_res_0_weight_to_fp16_affine_quantized_2 = constexpr_affine_dequantize()[axis = tensor<int32, []>(0), name = tensor<string, []>("drunet_m_up3_1_res_0_weight_to_fp16_affine_quantized_2"), quantized_data = tensor<uint8, [256, 256, 3, 3]>(BLOBFILE(path = tensor<string, []>("@model_path/weights/weight.bin"), offset = tensor<uint64, []>(26316096))), scale = tensor<fp16, [256]>(BLOBFILE(path = tensor<string, []>("@model_path/weights/weight.bin"), offset = tensor<uint64, []>(26906304))), zero_point = tensor<uint8, [256]>(BLOBFILE(path = tensor<string, []>("@model_path/weights/weight.bin"), offset = tensor<uint64, []>(26905984)))];
            tensor<fp16, [1, 256, 150, 150]> input_109_cast = conv(dilations = var_373, groups = var_27, pad = input_109_pad_0, pad_type = input_109_pad_type_0, strides = var_371, weight = drunet_m_up3_1_res_0_weight_to_fp16_affine_quantized_2, x = input_107_has_output_shape_cast);
            tensor<fp16, [1, 256, 150, 150]> input_111_cast = relu(x = input_109_cast);
            tensor<int32, [2]> var_378 = const()[name = tensor<string, []>("op_378"), val = tensor<int32, [2]>([1, 1])];
            tensor<int32, [2]> var_380 = const()[name = tensor<string, []>("op_380"), val = tensor<int32, [2]>([1, 1])];
            tensor<string, []> var_382_pad_type_0 = const()[name = tensor<string, []>("op_382_pad_type_0"), val = tensor<string, []>("custom")];
            tensor<int32, [4]> var_382_pad_0 = const()[name = tensor<string, []>("op_382_pad_0"), val = tensor<int32, [4]>([1, 1, 1, 1])];
            tensor<fp16, [256, 256, 3, 3]> drunet_m_up3_1_res_2_weight_to_fp16_affine_quantized_2 = constexpr_affine_dequantize()[axis = tensor<int32, []>(0), name = tensor<string, []>("drunet_m_up3_1_res_2_weight_to_fp16_affine_quantized_2"), quantized_data = tensor<uint8, [256, 256, 3, 3]>(BLOBFILE(path = tensor<string, []>("@model_path/weights/weight.bin"), offset = tensor<uint64, []>(26906880))), scale = tensor<fp16, [256]>(BLOBFILE(path = tensor<string, []>("@model_path/weights/weight.bin"), offset = tensor<uint64, []>(27497088))), zero_point = tensor<uint8, [256]>(BLOBFILE(path = tensor<string, []>("@model_path/weights/weight.bin"), offset = tensor<uint64, []>(27496768)))];
            tensor<fp16, [1, 256, 150, 150]> var_382_cast = conv(dilations = var_380, groups = var_27, pad = var_382_pad_0, pad_type = var_382_pad_type_0, strides = var_378, weight = drunet_m_up3_1_res_2_weight_to_fp16_affine_quantized_2, x = input_111_cast);
            tensor<fp16, [1, 256, 150, 150]> input_113_cast = add(x = input_107_has_output_shape_cast, y = var_382_cast);
            tensor<int32, [2]> var_388 = const()[name = tensor<string, []>("op_388"), val = tensor<int32, [2]>([1, 1])];
            tensor<int32, [2]> var_390 = const()[name = tensor<string, []>("op_390"), val = tensor<int32, [2]>([1, 1])];
            tensor<string, []> input_115_pad_type_0 = const()[name = tensor<string, []>("input_115_pad_type_0"), val = tensor<string, []>("custom")];
            tensor<int32, [4]> input_115_pad_0 = const()[name = tensor<string, []>("input_115_pad_0"), val = tensor<int32, [4]>([1, 1, 1, 1])];
            tensor<fp16, [256, 256, 3, 3]> drunet_m_up3_2_res_0_weight_to_fp16_affine_quantized_2 = constexpr_affine_dequantize()[axis = tensor<int32, []>(0), name = tensor<string, []>("drunet_m_up3_2_res_0_weight_to_fp16_affine_quantized_2"), quantized_data = tensor<uint8, [256, 256, 3, 3]>(BLOBFILE(path = tensor<string, []>("@model_path/weights/weight.bin"), offset = tensor<uint64, []>(27497664))), scale = tensor<fp16, [256]>(BLOBFILE(path = tensor<string, []>("@model_path/weights/weight.bin"), offset = tensor<uint64, []>(28087872))), zero_point = tensor<uint8, [256]>(BLOBFILE(path = tensor<string, []>("@model_path/weights/weight.bin"), offset = tensor<uint64, []>(28087552)))];
            tensor<fp16, [1, 256, 150, 150]> input_115_cast = conv(dilations = var_390, groups = var_27, pad = input_115_pad_0, pad_type = input_115_pad_type_0, strides = var_388, weight = drunet_m_up3_2_res_0_weight_to_fp16_affine_quantized_2, x = input_113_cast);
            tensor<fp16, [1, 256, 150, 150]> input_117_cast = relu(x = input_115_cast);
            tensor<int32, [2]> var_395 = const()[name = tensor<string, []>("op_395"), val = tensor<int32, [2]>([1, 1])];
            tensor<int32, [2]> var_397 = const()[name = tensor<string, []>("op_397"), val = tensor<int32, [2]>([1, 1])];
            tensor<string, []> var_399_pad_type_0 = const()[name = tensor<string, []>("op_399_pad_type_0"), val = tensor<string, []>("custom")];
            tensor<int32, [4]> var_399_pad_0 = const()[name = tensor<string, []>("op_399_pad_0"), val = tensor<int32, [4]>([1, 1, 1, 1])];
            tensor<fp16, [256, 256, 3, 3]> drunet_m_up3_2_res_2_weight_to_fp16_affine_quantized_2 = constexpr_affine_dequantize()[axis = tensor<int32, []>(0), name = tensor<string, []>("drunet_m_up3_2_res_2_weight_to_fp16_affine_quantized_2"), quantized_data = tensor<uint8, [256, 256, 3, 3]>(BLOBFILE(path = tensor<string, []>("@model_path/weights/weight.bin"), offset = tensor<uint64, []>(28088448))), scale = tensor<fp16, [256]>(BLOBFILE(path = tensor<string, []>("@model_path/weights/weight.bin"), offset = tensor<uint64, []>(28678656))), zero_point = tensor<uint8, [256]>(BLOBFILE(path = tensor<string, []>("@model_path/weights/weight.bin"), offset = tensor<uint64, []>(28678336)))];
            tensor<fp16, [1, 256, 150, 150]> var_399_cast = conv(dilations = var_397, groups = var_27, pad = var_399_pad_0, pad_type = var_399_pad_type_0, strides = var_395, weight = drunet_m_up3_2_res_2_weight_to_fp16_affine_quantized_2, x = input_117_cast);
            tensor<fp16, [1, 256, 150, 150]> input_119_cast = add(x = input_113_cast, y = var_399_cast);
            tensor<int32, [2]> var_405 = const()[name = tensor<string, []>("op_405"), val = tensor<int32, [2]>([1, 1])];
            tensor<int32, [2]> var_407 = const()[name = tensor<string, []>("op_407"), val = tensor<int32, [2]>([1, 1])];
            tensor<string, []> input_121_pad_type_0 = const()[name = tensor<string, []>("input_121_pad_type_0"), val = tensor<string, []>("custom")];
            tensor<int32, [4]> input_121_pad_0 = const()[name = tensor<string, []>("input_121_pad_0"), val = tensor<int32, [4]>([1, 1, 1, 1])];
            tensor<fp16, [256, 256, 3, 3]> drunet_m_up3_3_res_0_weight_to_fp16_affine_quantized_2 = constexpr_affine_dequantize()[axis = tensor<int32, []>(0), name = tensor<string, []>("drunet_m_up3_3_res_0_weight_to_fp16_affine_quantized_2"), quantized_data = tensor<uint8, [256, 256, 3, 3]>(BLOBFILE(path = tensor<string, []>("@model_path/weights/weight.bin"), offset = tensor<uint64, []>(28679232))), scale = tensor<fp16, [256]>(BLOBFILE(path = tensor<string, []>("@model_path/weights/weight.bin"), offset = tensor<uint64, []>(29269440))), zero_point = tensor<uint8, [256]>(BLOBFILE(path = tensor<string, []>("@model_path/weights/weight.bin"), offset = tensor<uint64, []>(29269120)))];
            tensor<fp16, [1, 256, 150, 150]> input_121_cast = conv(dilations = var_407, groups = var_27, pad = input_121_pad_0, pad_type = input_121_pad_type_0, strides = var_405, weight = drunet_m_up3_3_res_0_weight_to_fp16_affine_quantized_2, x = input_119_cast);
            tensor<fp16, [1, 256, 150, 150]> input_123_cast = relu(x = input_121_cast);
            tensor<int32, [2]> var_412 = const()[name = tensor<string, []>("op_412"), val = tensor<int32, [2]>([1, 1])];
            tensor<int32, [2]> var_414 = const()[name = tensor<string, []>("op_414"), val = tensor<int32, [2]>([1, 1])];
            tensor<string, []> var_416_pad_type_0 = const()[name = tensor<string, []>("op_416_pad_type_0"), val = tensor<string, []>("custom")];
            tensor<int32, [4]> var_416_pad_0 = const()[name = tensor<string, []>("op_416_pad_0"), val = tensor<int32, [4]>([1, 1, 1, 1])];
            tensor<fp16, [256, 256, 3, 3]> drunet_m_up3_3_res_2_weight_to_fp16_affine_quantized_2 = constexpr_affine_dequantize()[axis = tensor<int32, []>(0), name = tensor<string, []>("drunet_m_up3_3_res_2_weight_to_fp16_affine_quantized_2"), quantized_data = tensor<uint8, [256, 256, 3, 3]>(BLOBFILE(path = tensor<string, []>("@model_path/weights/weight.bin"), offset = tensor<uint64, []>(29270016))), scale = tensor<fp16, [256]>(BLOBFILE(path = tensor<string, []>("@model_path/weights/weight.bin"), offset = tensor<uint64, []>(29860224))), zero_point = tensor<uint8, [256]>(BLOBFILE(path = tensor<string, []>("@model_path/weights/weight.bin"), offset = tensor<uint64, []>(29859904)))];
            tensor<fp16, [1, 256, 150, 150]> var_416_cast = conv(dilations = var_414, groups = var_27, pad = var_416_pad_0, pad_type = var_416_pad_type_0, strides = var_412, weight = drunet_m_up3_3_res_2_weight_to_fp16_affine_quantized_2, x = input_123_cast);
            tensor<fp16, [1, 256, 150, 150]> input_125_cast = add(x = input_119_cast, y = var_416_cast);
            tensor<int32, [2]> var_422 = const()[name = tensor<string, []>("op_422"), val = tensor<int32, [2]>([1, 1])];
            tensor<int32, [2]> var_424 = const()[name = tensor<string, []>("op_424"), val = tensor<int32, [2]>([1, 1])];
            tensor<string, []> input_127_pad_type_0 = const()[name = tensor<string, []>("input_127_pad_type_0"), val = tensor<string, []>("custom")];
            tensor<int32, [4]> input_127_pad_0 = const()[name = tensor<string, []>("input_127_pad_0"), val = tensor<int32, [4]>([1, 1, 1, 1])];
            tensor<fp16, [256, 256, 3, 3]> drunet_m_up3_4_res_0_weight_to_fp16_affine_quantized_2 = constexpr_affine_dequantize()[axis = tensor<int32, []>(0), name = tensor<string, []>("drunet_m_up3_4_res_0_weight_to_fp16_affine_quantized_2"), quantized_data = tensor<uint8, [256, 256, 3, 3]>(BLOBFILE(path = tensor<string, []>("@model_path/weights/weight.bin"), offset = tensor<uint64, []>(29860800))), scale = tensor<fp16, [256]>(BLOBFILE(path = tensor<string, []>("@model_path/weights/weight.bin"), offset = tensor<uint64, []>(30451008))), zero_point = tensor<uint8, [256]>(BLOBFILE(path = tensor<string, []>("@model_path/weights/weight.bin"), offset = tensor<uint64, []>(30450688)))];
            tensor<fp16, [1, 256, 150, 150]> input_127_cast = conv(dilations = var_424, groups = var_27, pad = input_127_pad_0, pad_type = input_127_pad_type_0, strides = var_422, weight = drunet_m_up3_4_res_0_weight_to_fp16_affine_quantized_2, x = input_125_cast);
            tensor<fp16, [1, 256, 150, 150]> input_129_cast = relu(x = input_127_cast);
            tensor<int32, [2]> var_429 = const()[name = tensor<string, []>("op_429"), val = tensor<int32, [2]>([1, 1])];
            tensor<int32, [2]> var_431 = const()[name = tensor<string, []>("op_431"), val = tensor<int32, [2]>([1, 1])];
            tensor<string, []> var_433_pad_type_0 = const()[name = tensor<string, []>("op_433_pad_type_0"), val = tensor<string, []>("custom")];
            tensor<int32, [4]> var_433_pad_0 = const()[name = tensor<string, []>("op_433_pad_0"), val = tensor<int32, [4]>([1, 1, 1, 1])];
            tensor<fp16, [256, 256, 3, 3]> drunet_m_up3_4_res_2_weight_to_fp16_affine_quantized_2 = constexpr_affine_dequantize()[axis = tensor<int32, []>(0), name = tensor<string, []>("drunet_m_up3_4_res_2_weight_to_fp16_affine_quantized_2"), quantized_data = tensor<uint8, [256, 256, 3, 3]>(BLOBFILE(path = tensor<string, []>("@model_path/weights/weight.bin"), offset = tensor<uint64, []>(30451584))), scale = tensor<fp16, [256]>(BLOBFILE(path = tensor<string, []>("@model_path/weights/weight.bin"), offset = tensor<uint64, []>(31041792))), zero_point = tensor<uint8, [256]>(BLOBFILE(path = tensor<string, []>("@model_path/weights/weight.bin"), offset = tensor<uint64, []>(31041472)))];
            tensor<fp16, [1, 256, 150, 150]> var_433_cast = conv(dilations = var_431, groups = var_27, pad = var_433_pad_0, pad_type = var_433_pad_type_0, strides = var_429, weight = drunet_m_up3_4_res_2_weight_to_fp16_affine_quantized_2, x = input_129_cast);
            tensor<fp16, [1, 256, 150, 150]> x_5_cast = add(x = input_125_cast, y = var_433_cast);
            tensor<fp16, [1, 256, 150, 150]> input_131_cast = add(x = x_5_cast, y = input_55_cast);
            tensor<int32, [2]> var_442 = const()[name = tensor<string, []>("op_442"), val = tensor<int32, [2]>([2, 2])];
            tensor<int32, [2]> var_444 = const()[name = tensor<string, []>("op_444"), val = tensor<int32, [2]>([1, 1])];
            tensor<string, []> input_133_pad_type_0 = const()[name = tensor<string, []>("input_133_pad_type_0"), val = tensor<string, []>("custom")];
            tensor<int32, [4]> input_133_pad_0 = const()[name = tensor<string, []>("input_133_pad_0"), val = tensor<int32, [4]>([0, 0, 0, 0])];
            tensor<int32, [4]> input_133_has_output_shape_output_shape_0 = const()[name = tensor<string, []>("input_133_has_output_shape_output_shape_0"), val = tensor<int32, [4]>([1, 128, 300, 300])];
            tensor<fp16, [256, 128, 2, 2]> drunet_m_up2_0_weight_to_fp16_affine_quantized_2 = constexpr_affine_dequantize()[axis = tensor<int32, []>(1), name = tensor<string, []>("drunet_m_up2_0_weight_to_fp16_affine_quantized_2"), quantized_data = tensor<uint8, [256, 128, 2, 2]>(BLOBFILE(path = tensor<string, []>("@model_path/weights/weight.bin"), offset = tensor<uint64, []>(31042368))), scale = tensor<fp16, [128]>(BLOBFILE(path = tensor<string, []>("@model_path/weights/weight.bin"), offset = tensor<uint64, []>(31173696))), zero_point = tensor<uint8, [128]>(BLOBFILE(path = tensor<string, []>("@model_path/weights/weight.bin"), offset = tensor<uint64, []>(31173504)))];
            tensor<fp16, [1, 128, 300, 300]> input_133_has_output_shape_cast = conv_transpose(dilations = var_444, groups = var_27, output_shape = input_133_has_output_shape_output_shape_0, pad = input_133_pad_0, pad_type = input_133_pad_type_0, strides = var_442, weight = drunet_m_up2_0_weight_to_fp16_affine_quantized_2, x = input_131_cast);
            tensor<int32, [2]> var_451 = const()[name = tensor<string, []>("op_451"), val = tensor<int32, [2]>([1, 1])];
            tensor<int32, [2]> var_453 = const()[name = tensor<string, []>("op_453"), val = tensor<int32, [2]>([1, 1])];
            tensor<string, []> input_135_pad_type_0 = const()[name = tensor<string, []>("input_135_pad_type_0"), val = tensor<string, []>("custom")];
            tensor<int32, [4]> input_135_pad_0 = const()[name = tensor<string, []>("input_135_pad_0"), val = tensor<int32, [4]>([1, 1, 1, 1])];
            tensor<fp16, [128, 128, 3, 3]> drunet_m_up2_1_res_0_weight_to_fp16_affine_quantized_2 = constexpr_affine_dequantize()[axis = tensor<int32, []>(0), name = tensor<string, []>("drunet_m_up2_1_res_0_weight_to_fp16_affine_quantized_2"), quantized_data = tensor<uint8, [128, 128, 3, 3]>(BLOBFILE(path = tensor<string, []>("@model_path/weights/weight.bin"), offset = tensor<uint64, []>(31174016))), scale = tensor<fp16, [128]>(BLOBFILE(path = tensor<string, []>("@model_path/weights/weight.bin"), offset = tensor<uint64, []>(31321728))), zero_point = tensor<uint8, [128]>(BLOBFILE(path = tensor<string, []>("@model_path/weights/weight.bin"), offset = tensor<uint64, []>(31321536)))];
            tensor<fp16, [1, 128, 300, 300]> input_135_cast = conv(dilations = var_453, groups = var_27, pad = input_135_pad_0, pad_type = input_135_pad_type_0, strides = var_451, weight = drunet_m_up2_1_res_0_weight_to_fp16_affine_quantized_2, x = input_133_has_output_shape_cast);
            tensor<fp16, [1, 128, 300, 300]> input_137_cast = relu(x = input_135_cast);
            tensor<int32, [2]> var_458 = const()[name = tensor<string, []>("op_458"), val = tensor<int32, [2]>([1, 1])];
            tensor<int32, [2]> var_460 = const()[name = tensor<string, []>("op_460"), val = tensor<int32, [2]>([1, 1])];
            tensor<string, []> var_462_pad_type_0 = const()[name = tensor<string, []>("op_462_pad_type_0"), val = tensor<string, []>("custom")];
            tensor<int32, [4]> var_462_pad_0 = const()[name = tensor<string, []>("op_462_pad_0"), val = tensor<int32, [4]>([1, 1, 1, 1])];
            tensor<fp16, [128, 128, 3, 3]> drunet_m_up2_1_res_2_weight_to_fp16_affine_quantized_2 = constexpr_affine_dequantize()[axis = tensor<int32, []>(0), name = tensor<string, []>("drunet_m_up2_1_res_2_weight_to_fp16_affine_quantized_2"), quantized_data = tensor<uint8, [128, 128, 3, 3]>(BLOBFILE(path = tensor<string, []>("@model_path/weights/weight.bin"), offset = tensor<uint64, []>(31322048))), scale = tensor<fp16, [128]>(BLOBFILE(path = tensor<string, []>("@model_path/weights/weight.bin"), offset = tensor<uint64, []>(31469760))), zero_point = tensor<uint8, [128]>(BLOBFILE(path = tensor<string, []>("@model_path/weights/weight.bin"), offset = tensor<uint64, []>(31469568)))];
            tensor<fp16, [1, 128, 300, 300]> var_462_cast = conv(dilations = var_460, groups = var_27, pad = var_462_pad_0, pad_type = var_462_pad_type_0, strides = var_458, weight = drunet_m_up2_1_res_2_weight_to_fp16_affine_quantized_2, x = input_137_cast);
            tensor<fp16, [1, 128, 300, 300]> input_139_cast = add(x = input_133_has_output_shape_cast, y = var_462_cast);
            tensor<int32, [2]> var_468 = const()[name = tensor<string, []>("op_468"), val = tensor<int32, [2]>([1, 1])];
            tensor<int32, [2]> var_470 = const()[name = tensor<string, []>("op_470"), val = tensor<int32, [2]>([1, 1])];
            tensor<string, []> input_141_pad_type_0 = const()[name = tensor<string, []>("input_141_pad_type_0"), val = tensor<string, []>("custom")];
            tensor<int32, [4]> input_141_pad_0 = const()[name = tensor<string, []>("input_141_pad_0"), val = tensor<int32, [4]>([1, 1, 1, 1])];
            tensor<fp16, [128, 128, 3, 3]> drunet_m_up2_2_res_0_weight_to_fp16_affine_quantized_2 = constexpr_affine_dequantize()[axis = tensor<int32, []>(0), name = tensor<string, []>("drunet_m_up2_2_res_0_weight_to_fp16_affine_quantized_2"), quantized_data = tensor<uint8, [128, 128, 3, 3]>(BLOBFILE(path = tensor<string, []>("@model_path/weights/weight.bin"), offset = tensor<uint64, []>(31470080))), scale = tensor<fp16, [128]>(BLOBFILE(path = tensor<string, []>("@model_path/weights/weight.bin"), offset = tensor<uint64, []>(31617792))), zero_point = tensor<uint8, [128]>(BLOBFILE(path = tensor<string, []>("@model_path/weights/weight.bin"), offset = tensor<uint64, []>(31617600)))];
            tensor<fp16, [1, 128, 300, 300]> input_141_cast = conv(dilations = var_470, groups = var_27, pad = input_141_pad_0, pad_type = input_141_pad_type_0, strides = var_468, weight = drunet_m_up2_2_res_0_weight_to_fp16_affine_quantized_2, x = input_139_cast);
            tensor<fp16, [1, 128, 300, 300]> input_143_cast = relu(x = input_141_cast);
            tensor<int32, [2]> var_475 = const()[name = tensor<string, []>("op_475"), val = tensor<int32, [2]>([1, 1])];
            tensor<int32, [2]> var_477 = const()[name = tensor<string, []>("op_477"), val = tensor<int32, [2]>([1, 1])];
            tensor<string, []> var_479_pad_type_0 = const()[name = tensor<string, []>("op_479_pad_type_0"), val = tensor<string, []>("custom")];
            tensor<int32, [4]> var_479_pad_0 = const()[name = tensor<string, []>("op_479_pad_0"), val = tensor<int32, [4]>([1, 1, 1, 1])];
            tensor<fp16, [128, 128, 3, 3]> drunet_m_up2_2_res_2_weight_to_fp16_affine_quantized_2 = constexpr_affine_dequantize()[axis = tensor<int32, []>(0), name = tensor<string, []>("drunet_m_up2_2_res_2_weight_to_fp16_affine_quantized_2"), quantized_data = tensor<uint8, [128, 128, 3, 3]>(BLOBFILE(path = tensor<string, []>("@model_path/weights/weight.bin"), offset = tensor<uint64, []>(31618112))), scale = tensor<fp16, [128]>(BLOBFILE(path = tensor<string, []>("@model_path/weights/weight.bin"), offset = tensor<uint64, []>(31765824))), zero_point = tensor<uint8, [128]>(BLOBFILE(path = tensor<string, []>("@model_path/weights/weight.bin"), offset = tensor<uint64, []>(31765632)))];
            tensor<fp16, [1, 128, 300, 300]> var_479_cast = conv(dilations = var_477, groups = var_27, pad = var_479_pad_0, pad_type = var_479_pad_type_0, strides = var_475, weight = drunet_m_up2_2_res_2_weight_to_fp16_affine_quantized_2, x = input_143_cast);
            tensor<fp16, [1, 128, 300, 300]> input_145_cast = add(x = input_139_cast, y = var_479_cast);
            tensor<int32, [2]> var_485 = const()[name = tensor<string, []>("op_485"), val = tensor<int32, [2]>([1, 1])];
            tensor<int32, [2]> var_487 = const()[name = tensor<string, []>("op_487"), val = tensor<int32, [2]>([1, 1])];
            tensor<string, []> input_147_pad_type_0 = const()[name = tensor<string, []>("input_147_pad_type_0"), val = tensor<string, []>("custom")];
            tensor<int32, [4]> input_147_pad_0 = const()[name = tensor<string, []>("input_147_pad_0"), val = tensor<int32, [4]>([1, 1, 1, 1])];
            tensor<fp16, [128, 128, 3, 3]> drunet_m_up2_3_res_0_weight_to_fp16_affine_quantized_2 = constexpr_affine_dequantize()[axis = tensor<int32, []>(0), name = tensor<string, []>("drunet_m_up2_3_res_0_weight_to_fp16_affine_quantized_2"), quantized_data = tensor<uint8, [128, 128, 3, 3]>(BLOBFILE(path = tensor<string, []>("@model_path/weights/weight.bin"), offset = tensor<uint64, []>(31766144))), scale = tensor<fp16, [128]>(BLOBFILE(path = tensor<string, []>("@model_path/weights/weight.bin"), offset = tensor<uint64, []>(31913856))), zero_point = tensor<uint8, [128]>(BLOBFILE(path = tensor<string, []>("@model_path/weights/weight.bin"), offset = tensor<uint64, []>(31913664)))];
            tensor<fp16, [1, 128, 300, 300]> input_147_cast = conv(dilations = var_487, groups = var_27, pad = input_147_pad_0, pad_type = input_147_pad_type_0, strides = var_485, weight = drunet_m_up2_3_res_0_weight_to_fp16_affine_quantized_2, x = input_145_cast);
            tensor<fp16, [1, 128, 300, 300]> input_149_cast = relu(x = input_147_cast);
            tensor<int32, [2]> var_492 = const()[name = tensor<string, []>("op_492"), val = tensor<int32, [2]>([1, 1])];
            tensor<int32, [2]> var_494 = const()[name = tensor<string, []>("op_494"), val = tensor<int32, [2]>([1, 1])];
            tensor<string, []> var_496_pad_type_0 = const()[name = tensor<string, []>("op_496_pad_type_0"), val = tensor<string, []>("custom")];
            tensor<int32, [4]> var_496_pad_0 = const()[name = tensor<string, []>("op_496_pad_0"), val = tensor<int32, [4]>([1, 1, 1, 1])];
            tensor<fp16, [128, 128, 3, 3]> drunet_m_up2_3_res_2_weight_to_fp16_affine_quantized_2 = constexpr_affine_dequantize()[axis = tensor<int32, []>(0), name = tensor<string, []>("drunet_m_up2_3_res_2_weight_to_fp16_affine_quantized_2"), quantized_data = tensor<uint8, [128, 128, 3, 3]>(BLOBFILE(path = tensor<string, []>("@model_path/weights/weight.bin"), offset = tensor<uint64, []>(31914176))), scale = tensor<fp16, [128]>(BLOBFILE(path = tensor<string, []>("@model_path/weights/weight.bin"), offset = tensor<uint64, []>(32061888))), zero_point = tensor<uint8, [128]>(BLOBFILE(path = tensor<string, []>("@model_path/weights/weight.bin"), offset = tensor<uint64, []>(32061696)))];
            tensor<fp16, [1, 128, 300, 300]> var_496_cast = conv(dilations = var_494, groups = var_27, pad = var_496_pad_0, pad_type = var_496_pad_type_0, strides = var_492, weight = drunet_m_up2_3_res_2_weight_to_fp16_affine_quantized_2, x = input_149_cast);
            tensor<fp16, [1, 128, 300, 300]> input_151_cast = add(x = input_145_cast, y = var_496_cast);
            tensor<int32, [2]> var_502 = const()[name = tensor<string, []>("op_502"), val = tensor<int32, [2]>([1, 1])];
            tensor<int32, [2]> var_504 = const()[name = tensor<string, []>("op_504"), val = tensor<int32, [2]>([1, 1])];
            tensor<string, []> input_153_pad_type_0 = const()[name = tensor<string, []>("input_153_pad_type_0"), val = tensor<string, []>("custom")];
            tensor<int32, [4]> input_153_pad_0 = const()[name = tensor<string, []>("input_153_pad_0"), val = tensor<int32, [4]>([1, 1, 1, 1])];
            tensor<fp16, [128, 128, 3, 3]> drunet_m_up2_4_res_0_weight_to_fp16_affine_quantized_2 = constexpr_affine_dequantize()[axis = tensor<int32, []>(0), name = tensor<string, []>("drunet_m_up2_4_res_0_weight_to_fp16_affine_quantized_2"), quantized_data = tensor<uint8, [128, 128, 3, 3]>(BLOBFILE(path = tensor<string, []>("@model_path/weights/weight.bin"), offset = tensor<uint64, []>(32062208))), scale = tensor<fp16, [128]>(BLOBFILE(path = tensor<string, []>("@model_path/weights/weight.bin"), offset = tensor<uint64, []>(32209920))), zero_point = tensor<uint8, [128]>(BLOBFILE(path = tensor<string, []>("@model_path/weights/weight.bin"), offset = tensor<uint64, []>(32209728)))];
            tensor<fp16, [1, 128, 300, 300]> input_153_cast = conv(dilations = var_504, groups = var_27, pad = input_153_pad_0, pad_type = input_153_pad_type_0, strides = var_502, weight = drunet_m_up2_4_res_0_weight_to_fp16_affine_quantized_2, x = input_151_cast);
            tensor<fp16, [1, 128, 300, 300]> input_155_cast = relu(x = input_153_cast);
            tensor<int32, [2]> var_509 = const()[name = tensor<string, []>("op_509"), val = tensor<int32, [2]>([1, 1])];
            tensor<int32, [2]> var_511 = const()[name = tensor<string, []>("op_511"), val = tensor<int32, [2]>([1, 1])];
            tensor<string, []> var_513_pad_type_0 = const()[name = tensor<string, []>("op_513_pad_type_0"), val = tensor<string, []>("custom")];
            tensor<int32, [4]> var_513_pad_0 = const()[name = tensor<string, []>("op_513_pad_0"), val = tensor<int32, [4]>([1, 1, 1, 1])];
            tensor<fp16, [128, 128, 3, 3]> drunet_m_up2_4_res_2_weight_to_fp16_affine_quantized_2 = constexpr_affine_dequantize()[axis = tensor<int32, []>(0), name = tensor<string, []>("drunet_m_up2_4_res_2_weight_to_fp16_affine_quantized_2"), quantized_data = tensor<uint8, [128, 128, 3, 3]>(BLOBFILE(path = tensor<string, []>("@model_path/weights/weight.bin"), offset = tensor<uint64, []>(32210240))), scale = tensor<fp16, [128]>(BLOBFILE(path = tensor<string, []>("@model_path/weights/weight.bin"), offset = tensor<uint64, []>(32357952))), zero_point = tensor<uint8, [128]>(BLOBFILE(path = tensor<string, []>("@model_path/weights/weight.bin"), offset = tensor<uint64, []>(32357760)))];
            tensor<fp16, [1, 128, 300, 300]> var_513_cast = conv(dilations = var_511, groups = var_27, pad = var_513_pad_0, pad_type = var_513_pad_type_0, strides = var_509, weight = drunet_m_up2_4_res_2_weight_to_fp16_affine_quantized_2, x = input_155_cast);
            tensor<fp16, [1, 128, 300, 300]> x_7_cast = add(x = input_151_cast, y = var_513_cast);
            tensor<fp16, [1, 128, 300, 300]> input_157_cast = add(x = x_7_cast, y = input_29_cast);
            tensor<int32, [2]> var_522 = const()[name = tensor<string, []>("op_522"), val = tensor<int32, [2]>([2, 2])];
            tensor<int32, [2]> var_524 = const()[name = tensor<string, []>("op_524"), val = tensor<int32, [2]>([1, 1])];
            tensor<string, []> input_159_pad_type_0 = const()[name = tensor<string, []>("input_159_pad_type_0"), val = tensor<string, []>("custom")];
            tensor<int32, [4]> input_159_pad_0 = const()[name = tensor<string, []>("input_159_pad_0"), val = tensor<int32, [4]>([0, 0, 0, 0])];
            tensor<int32, [4]> input_159_has_output_shape_output_shape_0 = const()[name = tensor<string, []>("input_159_has_output_shape_output_shape_0"), val = tensor<int32, [4]>([1, 64, 600, 600])];
            tensor<fp16, [128, 64, 2, 2]> drunet_m_up1_0_weight_to_fp16_affine_quantized_2 = constexpr_affine_dequantize()[axis = tensor<int32, []>(1), name = tensor<string, []>("drunet_m_up1_0_weight_to_fp16_affine_quantized_2"), quantized_data = tensor<uint8, [128, 64, 2, 2]>(BLOBFILE(path = tensor<string, []>("@model_path/weights/weight.bin"), offset = tensor<uint64, []>(32358272))), scale = tensor<fp16, [64]>(BLOBFILE(path = tensor<string, []>("@model_path/weights/weight.bin"), offset = tensor<uint64, []>(32391232))), zero_point = tensor<uint8, [64]>(BLOBFILE(path = tensor<string, []>("@model_path/weights/weight.bin"), offset = tensor<uint64, []>(32391104)))];
            tensor<fp16, [1, 64, 600, 600]> input_159_has_output_shape_cast = conv_transpose(dilations = var_524, groups = var_27, output_shape = input_159_has_output_shape_output_shape_0, pad = input_159_pad_0, pad_type = input_159_pad_type_0, strides = var_522, weight = drunet_m_up1_0_weight_to_fp16_affine_quantized_2, x = input_157_cast);
            tensor<int32, [2]> var_531 = const()[name = tensor<string, []>("op_531"), val = tensor<int32, [2]>([1, 1])];
            tensor<int32, [2]> var_533 = const()[name = tensor<string, []>("op_533"), val = tensor<int32, [2]>([1, 1])];
            tensor<string, []> input_161_pad_type_0 = const()[name = tensor<string, []>("input_161_pad_type_0"), val = tensor<string, []>("custom")];
            tensor<int32, [4]> input_161_pad_0 = const()[name = tensor<string, []>("input_161_pad_0"), val = tensor<int32, [4]>([1, 1, 1, 1])];
            tensor<fp16, [64, 64, 3, 3]> drunet_m_up1_1_res_0_weight_to_fp16_affine_quantized_2 = constexpr_affine_dequantize()[axis = tensor<int32, []>(0), name = tensor<string, []>("drunet_m_up1_1_res_0_weight_to_fp16_affine_quantized_2"), quantized_data = tensor<uint8, [64, 64, 3, 3]>(BLOBFILE(path = tensor<string, []>("@model_path/weights/weight.bin"), offset = tensor<uint64, []>(32391424))), scale = tensor<fp16, [64]>(BLOBFILE(path = tensor<string, []>("@model_path/weights/weight.bin"), offset = tensor<uint64, []>(32428480))), zero_point = tensor<uint8, [64]>(BLOBFILE(path = tensor<string, []>("@model_path/weights/weight.bin"), offset = tensor<uint64, []>(32428352)))];
            tensor<fp16, [1, 64, 600, 600]> input_161_cast = conv(dilations = var_533, groups = var_27, pad = input_161_pad_0, pad_type = input_161_pad_type_0, strides = var_531, weight = drunet_m_up1_1_res_0_weight_to_fp16_affine_quantized_2, x = input_159_has_output_shape_cast);
            tensor<fp16, [1, 64, 600, 600]> input_163_cast = relu(x = input_161_cast);
            tensor<int32, [2]> var_538 = const()[name = tensor<string, []>("op_538"), val = tensor<int32, [2]>([1, 1])];
            tensor<int32, [2]> var_540 = const()[name = tensor<string, []>("op_540"), val = tensor<int32, [2]>([1, 1])];
            tensor<string, []> var_542_pad_type_0 = const()[name = tensor<string, []>("op_542_pad_type_0"), val = tensor<string, []>("custom")];
            tensor<int32, [4]> var_542_pad_0 = const()[name = tensor<string, []>("op_542_pad_0"), val = tensor<int32, [4]>([1, 1, 1, 1])];
            tensor<fp16, [64, 64, 3, 3]> drunet_m_up1_1_res_2_weight_to_fp16_affine_quantized_2 = constexpr_affine_dequantize()[axis = tensor<int32, []>(0), name = tensor<string, []>("drunet_m_up1_1_res_2_weight_to_fp16_affine_quantized_2"), quantized_data = tensor<uint8, [64, 64, 3, 3]>(BLOBFILE(path = tensor<string, []>("@model_path/weights/weight.bin"), offset = tensor<uint64, []>(32428672))), scale = tensor<fp16, [64]>(BLOBFILE(path = tensor<string, []>("@model_path/weights/weight.bin"), offset = tensor<uint64, []>(32465728))), zero_point = tensor<uint8, [64]>(BLOBFILE(path = tensor<string, []>("@model_path/weights/weight.bin"), offset = tensor<uint64, []>(32465600)))];
            tensor<fp16, [1, 64, 600, 600]> var_542_cast = conv(dilations = var_540, groups = var_27, pad = var_542_pad_0, pad_type = var_542_pad_type_0, strides = var_538, weight = drunet_m_up1_1_res_2_weight_to_fp16_affine_quantized_2, x = input_163_cast);
            tensor<fp16, [1, 64, 600, 600]> input_165_cast = add(x = input_159_has_output_shape_cast, y = var_542_cast);
            tensor<int32, [2]> var_548 = const()[name = tensor<string, []>("op_548"), val = tensor<int32, [2]>([1, 1])];
            tensor<int32, [2]> var_550 = const()[name = tensor<string, []>("op_550"), val = tensor<int32, [2]>([1, 1])];
            tensor<string, []> input_167_pad_type_0 = const()[name = tensor<string, []>("input_167_pad_type_0"), val = tensor<string, []>("custom")];
            tensor<int32, [4]> input_167_pad_0 = const()[name = tensor<string, []>("input_167_pad_0"), val = tensor<int32, [4]>([1, 1, 1, 1])];
            tensor<fp16, [64, 64, 3, 3]> drunet_m_up1_2_res_0_weight_to_fp16_affine_quantized_2 = constexpr_affine_dequantize()[axis = tensor<int32, []>(0), name = tensor<string, []>("drunet_m_up1_2_res_0_weight_to_fp16_affine_quantized_2"), quantized_data = tensor<uint8, [64, 64, 3, 3]>(BLOBFILE(path = tensor<string, []>("@model_path/weights/weight.bin"), offset = tensor<uint64, []>(32465920))), scale = tensor<fp16, [64]>(BLOBFILE(path = tensor<string, []>("@model_path/weights/weight.bin"), offset = tensor<uint64, []>(32502976))), zero_point = tensor<uint8, [64]>(BLOBFILE(path = tensor<string, []>("@model_path/weights/weight.bin"), offset = tensor<uint64, []>(32502848)))];
            tensor<fp16, [1, 64, 600, 600]> input_167_cast = conv(dilations = var_550, groups = var_27, pad = input_167_pad_0, pad_type = input_167_pad_type_0, strides = var_548, weight = drunet_m_up1_2_res_0_weight_to_fp16_affine_quantized_2, x = input_165_cast);
            tensor<fp16, [1, 64, 600, 600]> input_169_cast = relu(x = input_167_cast);
            tensor<int32, [2]> var_555 = const()[name = tensor<string, []>("op_555"), val = tensor<int32, [2]>([1, 1])];
            tensor<int32, [2]> var_557 = const()[name = tensor<string, []>("op_557"), val = tensor<int32, [2]>([1, 1])];
            tensor<string, []> var_559_pad_type_0 = const()[name = tensor<string, []>("op_559_pad_type_0"), val = tensor<string, []>("custom")];
            tensor<int32, [4]> var_559_pad_0 = const()[name = tensor<string, []>("op_559_pad_0"), val = tensor<int32, [4]>([1, 1, 1, 1])];
            tensor<fp16, [64, 64, 3, 3]> drunet_m_up1_2_res_2_weight_to_fp16_affine_quantized_2 = constexpr_affine_dequantize()[axis = tensor<int32, []>(0), name = tensor<string, []>("drunet_m_up1_2_res_2_weight_to_fp16_affine_quantized_2"), quantized_data = tensor<uint8, [64, 64, 3, 3]>(BLOBFILE(path = tensor<string, []>("@model_path/weights/weight.bin"), offset = tensor<uint64, []>(32503168))), scale = tensor<fp16, [64]>(BLOBFILE(path = tensor<string, []>("@model_path/weights/weight.bin"), offset = tensor<uint64, []>(32540224))), zero_point = tensor<uint8, [64]>(BLOBFILE(path = tensor<string, []>("@model_path/weights/weight.bin"), offset = tensor<uint64, []>(32540096)))];
            tensor<fp16, [1, 64, 600, 600]> var_559_cast = conv(dilations = var_557, groups = var_27, pad = var_559_pad_0, pad_type = var_559_pad_type_0, strides = var_555, weight = drunet_m_up1_2_res_2_weight_to_fp16_affine_quantized_2, x = input_169_cast);
            tensor<fp16, [1, 64, 600, 600]> input_171_cast = add(x = input_165_cast, y = var_559_cast);
            tensor<int32, [2]> var_565 = const()[name = tensor<string, []>("op_565"), val = tensor<int32, [2]>([1, 1])];
            tensor<int32, [2]> var_567 = const()[name = tensor<string, []>("op_567"), val = tensor<int32, [2]>([1, 1])];
            tensor<string, []> input_173_pad_type_0 = const()[name = tensor<string, []>("input_173_pad_type_0"), val = tensor<string, []>("custom")];
            tensor<int32, [4]> input_173_pad_0 = const()[name = tensor<string, []>("input_173_pad_0"), val = tensor<int32, [4]>([1, 1, 1, 1])];
            tensor<fp16, [64, 64, 3, 3]> drunet_m_up1_3_res_0_weight_to_fp16_affine_quantized_2 = constexpr_affine_dequantize()[axis = tensor<int32, []>(0), name = tensor<string, []>("drunet_m_up1_3_res_0_weight_to_fp16_affine_quantized_2"), quantized_data = tensor<uint8, [64, 64, 3, 3]>(BLOBFILE(path = tensor<string, []>("@model_path/weights/weight.bin"), offset = tensor<uint64, []>(32540416))), scale = tensor<fp16, [64]>(BLOBFILE(path = tensor<string, []>("@model_path/weights/weight.bin"), offset = tensor<uint64, []>(32577472))), zero_point = tensor<uint8, [64]>(BLOBFILE(path = tensor<string, []>("@model_path/weights/weight.bin"), offset = tensor<uint64, []>(32577344)))];
            tensor<fp16, [1, 64, 600, 600]> input_173_cast = conv(dilations = var_567, groups = var_27, pad = input_173_pad_0, pad_type = input_173_pad_type_0, strides = var_565, weight = drunet_m_up1_3_res_0_weight_to_fp16_affine_quantized_2, x = input_171_cast);
            tensor<fp16, [1, 64, 600, 600]> input_175_cast = relu(x = input_173_cast);
            tensor<int32, [2]> var_572 = const()[name = tensor<string, []>("op_572"), val = tensor<int32, [2]>([1, 1])];
            tensor<int32, [2]> var_574 = const()[name = tensor<string, []>("op_574"), val = tensor<int32, [2]>([1, 1])];
            tensor<string, []> var_576_pad_type_0 = const()[name = tensor<string, []>("op_576_pad_type_0"), val = tensor<string, []>("custom")];
            tensor<int32, [4]> var_576_pad_0 = const()[name = tensor<string, []>("op_576_pad_0"), val = tensor<int32, [4]>([1, 1, 1, 1])];
            tensor<fp16, [64, 64, 3, 3]> drunet_m_up1_3_res_2_weight_to_fp16_affine_quantized_2 = constexpr_affine_dequantize()[axis = tensor<int32, []>(0), name = tensor<string, []>("drunet_m_up1_3_res_2_weight_to_fp16_affine_quantized_2"), quantized_data = tensor<uint8, [64, 64, 3, 3]>(BLOBFILE(path = tensor<string, []>("@model_path/weights/weight.bin"), offset = tensor<uint64, []>(32577664))), scale = tensor<fp16, [64]>(BLOBFILE(path = tensor<string, []>("@model_path/weights/weight.bin"), offset = tensor<uint64, []>(32614720))), zero_point = tensor<uint8, [64]>(BLOBFILE(path = tensor<string, []>("@model_path/weights/weight.bin"), offset = tensor<uint64, []>(32614592)))];
            tensor<fp16, [1, 64, 600, 600]> var_576_cast = conv(dilations = var_574, groups = var_27, pad = var_576_pad_0, pad_type = var_576_pad_type_0, strides = var_572, weight = drunet_m_up1_3_res_2_weight_to_fp16_affine_quantized_2, x = input_175_cast);
            tensor<fp16, [1, 64, 600, 600]> input_177_cast = add(x = input_171_cast, y = var_576_cast);
            tensor<int32, [2]> var_582 = const()[name = tensor<string, []>("op_582"), val = tensor<int32, [2]>([1, 1])];
            tensor<int32, [2]> var_584 = const()[name = tensor<string, []>("op_584"), val = tensor<int32, [2]>([1, 1])];
            tensor<string, []> input_179_pad_type_0 = const()[name = tensor<string, []>("input_179_pad_type_0"), val = tensor<string, []>("custom")];
            tensor<int32, [4]> input_179_pad_0 = const()[name = tensor<string, []>("input_179_pad_0"), val = tensor<int32, [4]>([1, 1, 1, 1])];
            tensor<fp16, [64, 64, 3, 3]> drunet_m_up1_4_res_0_weight_to_fp16_affine_quantized_2 = constexpr_affine_dequantize()[axis = tensor<int32, []>(0), name = tensor<string, []>("drunet_m_up1_4_res_0_weight_to_fp16_affine_quantized_2"), quantized_data = tensor<uint8, [64, 64, 3, 3]>(BLOBFILE(path = tensor<string, []>("@model_path/weights/weight.bin"), offset = tensor<uint64, []>(32614912))), scale = tensor<fp16, [64]>(BLOBFILE(path = tensor<string, []>("@model_path/weights/weight.bin"), offset = tensor<uint64, []>(32651968))), zero_point = tensor<uint8, [64]>(BLOBFILE(path = tensor<string, []>("@model_path/weights/weight.bin"), offset = tensor<uint64, []>(32651840)))];
            tensor<fp16, [1, 64, 600, 600]> input_179_cast = conv(dilations = var_584, groups = var_27, pad = input_179_pad_0, pad_type = input_179_pad_type_0, strides = var_582, weight = drunet_m_up1_4_res_0_weight_to_fp16_affine_quantized_2, x = input_177_cast);
            tensor<fp16, [1, 64, 600, 600]> input_181_cast = relu(x = input_179_cast);
            tensor<int32, [2]> var_589 = const()[name = tensor<string, []>("op_589"), val = tensor<int32, [2]>([1, 1])];
            tensor<int32, [2]> var_591 = const()[name = tensor<string, []>("op_591"), val = tensor<int32, [2]>([1, 1])];
            tensor<string, []> var_593_pad_type_0 = const()[name = tensor<string, []>("op_593_pad_type_0"), val = tensor<string, []>("custom")];
            tensor<int32, [4]> var_593_pad_0 = const()[name = tensor<string, []>("op_593_pad_0"), val = tensor<int32, [4]>([1, 1, 1, 1])];
            tensor<fp16, [64, 64, 3, 3]> drunet_m_up1_4_res_2_weight_to_fp16_affine_quantized_2 = constexpr_affine_dequantize()[axis = tensor<int32, []>(0), name = tensor<string, []>("drunet_m_up1_4_res_2_weight_to_fp16_affine_quantized_2"), quantized_data = tensor<uint8, [64, 64, 3, 3]>(BLOBFILE(path = tensor<string, []>("@model_path/weights/weight.bin"), offset = tensor<uint64, []>(32652160))), scale = tensor<fp16, [64]>(BLOBFILE(path = tensor<string, []>("@model_path/weights/weight.bin"), offset = tensor<uint64, []>(32689216))), zero_point = tensor<uint8, [64]>(BLOBFILE(path = tensor<string, []>("@model_path/weights/weight.bin"), offset = tensor<uint64, []>(32689088)))];
            tensor<fp16, [1, 64, 600, 600]> var_593_cast = conv(dilations = var_591, groups = var_27, pad = var_593_pad_0, pad_type = var_593_pad_type_0, strides = var_589, weight = drunet_m_up1_4_res_2_weight_to_fp16_affine_quantized_2, x = input_181_cast);
            tensor<fp16, [1, 64, 600, 600]> x_cast = add(x = input_177_cast, y = var_593_cast);
            tensor<fp16, [1, 64, 600, 600]> input_cast = add(x = x_cast, y = input_3_cast);
            tensor<int32, [2]> var_597 = const()[name = tensor<string, []>("op_597"), val = tensor<int32, [2]>([1, 1])];
            tensor<int32, [2]> var_599 = const()[name = tensor<string, []>("op_599"), val = tensor<int32, [2]>([1, 1])];
            tensor<string, []> var_601_pad_type_0 = const()[name = tensor<string, []>("op_601_pad_type_0"), val = tensor<string, []>("custom")];
            tensor<int32, [4]> var_601_pad_0 = const()[name = tensor<string, []>("op_601_pad_0"), val = tensor<int32, [4]>([1, 1, 1, 1])];
            tensor<fp16, [3, 64, 3, 3]> drunet_m_tail_weight_to_fp16 = const()[name = tensor<string, []>("drunet_m_tail_weight_to_fp16"), val = tensor<fp16, [3, 64, 3, 3]>(BLOBFILE(path = tensor<string, []>("@model_path/weights/weight.bin"), offset = tensor<uint64, []>(32689408)))];
            tensor<fp16, [1, 3, 600, 600]> var_601_cast = conv(dilations = var_599, groups = var_27, pad = var_601_pad_0, pad_type = var_601_pad_type_0, strides = var_597, weight = drunet_m_tail_weight_to_fp16, x = input_cast);
            tensor<string, []> var_601_cast_to_fp32_dtype_0 = const()[name = tensor<string, []>("op_601_cast_to_fp32_dtype_0"), val = tensor<string, []>("fp32")];
            tensor<fp32, [1, 3, 600, 600]> outputImage = cast(dtype = var_601_cast_to_fp32_dtype_0, x = var_601_cast);
        } -> (outputImage);
}